{"format": "layers-model", "generatedBy": "keras v2.3.0-tf", "convertedBy": "TensorFlow.js Converter v2.0.1.post1", "modelTopology": {"keras_version": "2.3.0-tf", "backend": "tensorflow", "model_config": {"class_name": "Model", "config": {"name": "YOLOv4", "layers": [{"class_name": "InputLayer", "config": {"batch_input_shape": [null, 416, 416, 3], "dtype": "float32", "sparse": false, "ragged": false, "name": "input_8"}, "name": "input_8", "inbound_nodes": []}, {"class_name": "Model", "config": {"name": "CSPDarknet53", "layers": [{"class_name": "InputLayer", "config": {"batch_input_shape": [null, 416, 416, 3], "dtype": "float32", "sparse": false, "ragged": false, "name": "input_1"}, "name": "input_1", "inbound_nodes": []}, {"class_name": "Conv2D", "config": {"name": "conv2d", "trainable": true, "dtype": "float32", "filters": 32, "kernel_size": [3, 3], "strides": [1, 1], "padding": "same", "data_format": "channels_last", "dilation_rate": [1, 1], "activation": "linear", "use_bias": false, "kernel_initializer": {"class_name": "GlorotUniform", "config": {"seed": null}}, "bias_initializer": {"class_name": "Zeros", "config": {}}, "kernel_regularizer": null, "bias_regularizer": null, "activity_regularizer": null, "kernel_constraint": null, "bias_constraint": null}, "name": "conv2d", "inbound_nodes": [[["input_1", 0, 0, {}]]]}, {"class_name": "BatchNormalization", "config": {"name": "batch_normalization", "trainable": true, "dtype": "float32", "axis": [3], "momentum": 0.99, "epsilon": 0.001, "center": true, "scale": true, "beta_initializer": {"class_name": "Zeros", "config": {}}, "gamma_initializer": {"class_name": "Ones", "config": {}}, "moving_mean_initializer": {"class_name": "Zeros", "config": {}}, "moving_variance_initializer": {"class_name": "Ones", "config": {}}, "beta_regularizer": null, "gamma_regularizer": null, "beta_constraint": null, "gamma_constraint": null}, "name": "batch_normalization", "inbound_nodes": [[["conv2d", 0, 0, {}]]]}, {"class_name": "TensorFlowOpLayer", "config": {"name": "Softplus", "trainable": true, "dtype": "float32", "node_def": {"name": "Softplus", "op": "Softplus", "input": ["batch_normalization/Identity"], "attr": {"T": {"type": "DT_FLOAT"}}}, "constants": {}}, "name": "tf_op_layer_Softplus", "inbound_nodes": [[["batch_normalization", 0, 0, {}]]]}, {"class_name": "TensorFlowOpLayer", "config": {"name": "Tanh", "trainable": true, "dtype": "float32", "node_def": {"name": "Tanh", "op": "Tanh", "input": ["Softplus"], "attr": {"T": {"type": "DT_FLOAT"}}}, "constants": {}}, "name": "tf_op_layer_Tanh", "inbound_nodes": [[["tf_op_layer_Softplus", 0, 0, {}]]]}, {"class_name": "TensorFlowOpLayer", "config": {"name": "Mul", "trainable": true, "dtype": "float32", "node_def": {"name": "Mul", "op": "Mul", "input": ["batch_normalization/Identity", "Tanh"], "attr": {"T": {"type": "DT_FLOAT"}}}, "constants": {}}, "name": "tf_op_layer_Mul", "inbound_nodes": [[["batch_normalization", 0, 0, {}], ["tf_op_layer_Tanh", 0, 0, {}]]]}, {"class_name": "ZeroPadding2D", "config": {"name": "zero_padding2d", "trainable": true, "dtype": "float32", "padding": [[1, 0], [1, 0]], "data_format": "channels_last"}, "name": "zero_padding2d", "inbound_nodes": [[["tf_op_layer_Mul", 0, 0, {}]]]}, {"class_name": "Conv2D", "config": {"name": "conv2d_1", "trainable": true, "dtype": "float32", "filters": 64, "kernel_size": [3, 3], "strides": [2, 2], "padding": "valid", "data_format": "channels_last", "dilation_rate": [1, 1], "activation": "linear", "use_bias": false, "kernel_initializer": {"class_name": "GlorotUniform", "config": {"seed": null}}, "bias_initializer": {"class_name": "Zeros", "config": {}}, "kernel_regularizer": null, "bias_regularizer": null, "activity_regularizer": null, "kernel_constraint": null, "bias_constraint": null}, "name": "conv2d_1", "inbound_nodes": [[["zero_padding2d", 0, 0, {}]]]}, {"class_name": "BatchNormalization", "config": {"name": "batch_normalization_1", "trainable": true, "dtype": "float32", "axis": [3], "momentum": 0.99, "epsilon": 0.001, "center": true, "scale": true, "beta_initializer": {"class_name": "Zeros", "config": {}}, "gamma_initializer": {"class_name": "Ones", "config": {}}, "moving_mean_initializer": {"class_name": "Zeros", "config": {}}, "moving_variance_initializer": {"class_name": "Ones", "config": {}}, "beta_regularizer": null, "gamma_regularizer": null, "beta_constraint": null, "gamma_constraint": null}, "name": "batch_normalization_1", "inbound_nodes": [[["conv2d_1", 0, 0, {}]]]}, {"class_name": "TensorFlowOpLayer", "config": {"name": "Softplus_1", "trainable": true, "dtype": "float32", "node_def": {"name": "Softplus_1", "op": "Softplus", "input": ["batch_normalization_1/Identity"], "attr": {"T": {"type": "DT_FLOAT"}}}, "constants": {}}, "name": "tf_op_layer_Softplus_1", "inbound_nodes": [[["batch_normalization_1", 0, 0, {}]]]}, {"class_name": "TensorFlowOpLayer", "config": {"name": "Tanh_1", "trainable": true, "dtype": "float32", "node_def": {"name": "Tanh_1", "op": "Tanh", "input": ["Softplus_1"], "attr": {"T": {"type": "DT_FLOAT"}}}, "constants": {}}, "name": "tf_op_layer_Tanh_1", "inbound_nodes": [[["tf_op_layer_Softplus_1", 0, 0, {}]]]}, {"class_name": "TensorFlowOpLayer", "config": {"name": "Mul_1", "trainable": true, "dtype": "float32", "node_def": {"name": "Mul_1", "op": "Mul", "input": ["batch_normalization_1/Identity", "Tanh_1"], "attr": {"T": {"type": "DT_FLOAT"}}}, "constants": {}}, "name": "tf_op_layer_Mul_1", "inbound_nodes": [[["batch_normalization_1", 0, 0, {}], ["tf_op_layer_Tanh_1", 0, 0, {}]]]}, {"class_name": "Conv2D", "config": {"name": "conv2d_3", "trainable": true, "dtype": "float32", "filters": 64, "kernel_size": [1, 1], "strides": [1, 1], "padding": "same", "data_format": "channels_last", "dilation_rate": [1, 1], "activation": "linear", "use_bias": false, "kernel_initializer": {"class_name": "GlorotUniform", "config": {"seed": null}}, "bias_initializer": {"class_name": "Zeros", "config": {}}, "kernel_regularizer": null, "bias_regularizer": null, "activity_regularizer": null, "kernel_constraint": null, "bias_constraint": null}, "name": "conv2d_3", "inbound_nodes": [[["tf_op_layer_Mul_1", 0, 0, {}]]]}, {"class_name": "BatchNormalization", "config": {"name": "batch_normalization_3", "trainable": true, "dtype": "float32", "axis": [3], "momentum": 0.99, "epsilon": 0.001, "center": true, "scale": true, "beta_initializer": {"class_name": "Zeros", "config": {}}, "gamma_initializer": {"class_name": "Ones", "config": {}}, "moving_mean_initializer": {"class_name": "Zeros", "config": {}}, "moving_variance_initializer": {"class_name": "Ones", "config": {}}, "beta_regularizer": null, "gamma_regularizer": null, "beta_constraint": null, "gamma_constraint": null}, "name": "batch_normalization_3", "inbound_nodes": [[["conv2d_3", 0, 0, {}]]]}, {"class_name": "TensorFlowOpLayer", "config": {"name": "Softplus_3", "trainable": true, "dtype": "float32", "node_def": {"name": "Softplus_3", "op": "Softplus", "input": ["batch_normalization_3/Identity"], "attr": {"T": {"type": "DT_FLOAT"}}}, "constants": {}}, "name": "tf_op_layer_Softplus_3", "inbound_nodes": [[["batch_normalization_3", 0, 0, {}]]]}, {"class_name": "TensorFlowOpLayer", "config": {"name": "Tanh_3", "trainable": true, "dtype": "float32", "node_def": {"name": "Tanh_3", "op": "Tanh", "input": ["Softplus_3"], "attr": {"T": {"type": "DT_FLOAT"}}}, "constants": {}}, "name": "tf_op_layer_Tanh_3", "inbound_nodes": [[["tf_op_layer_Softplus_3", 0, 0, {}]]]}, {"class_name": "TensorFlowOpLayer", "config": {"name": "Mul_3", "trainable": true, "dtype": "float32", "node_def": {"name": "Mul_3", "op": "Mul", "input": ["batch_normalization_3/Identity", "Tanh_3"], "attr": {"T": {"type": "DT_FLOAT"}}}, "constants": {}}, "name": "tf_op_layer_Mul_3", "inbound_nodes": [[["batch_normalization_3", 0, 0, {}], ["tf_op_layer_Tanh_3", 0, 0, {}]]]}, {"class_name": "Conv2D", "config": {"name": "conv2d_4", "trainable": true, "dtype": "float32", "filters": 32, "kernel_size": [1, 1], "strides": [1, 1], "padding": "same", "data_format": "channels_last", "dilation_rate": [1, 1], "activation": "linear", "use_bias": false, "kernel_initializer": {"class_name": "GlorotUniform", "config": {"seed": null}}, "bias_initializer": {"class_name": "Zeros", "config": {}}, "kernel_regularizer": null, "bias_regularizer": null, "activity_regularizer": null, "kernel_constraint": null, "bias_constraint": null}, "name": "conv2d_4", "inbound_nodes": [[["tf_op_layer_Mul_3", 0, 0, {}]]]}, {"class_name": "BatchNormalization", "config": {"name": "batch_normalization_4", "trainable": true, "dtype": "float32", "axis": [3], "momentum": 0.99, "epsilon": 0.001, "center": true, "scale": true, "beta_initializer": {"class_name": "Zeros", "config": {}}, "gamma_initializer": {"class_name": "Ones", "config": {}}, "moving_mean_initializer": {"class_name": "Zeros", "config": {}}, "moving_variance_initializer": {"class_name": "Ones", "config": {}}, "beta_regularizer": null, "gamma_regularizer": null, "beta_constraint": null, "gamma_constraint": null}, "name": "batch_normalization_4", "inbound_nodes": [[["conv2d_4", 0, 0, {}]]]}, {"class_name": "TensorFlowOpLayer", "config": {"name": "Softplus_4", "trainable": true, "dtype": "float32", "node_def": {"name": "Softplus_4", "op": "Softplus", "input": ["batch_normalization_4/Identity"], "attr": {"T": {"type": "DT_FLOAT"}}}, "constants": {}}, "name": "tf_op_layer_Softplus_4", "inbound_nodes": [[["batch_normalization_4", 0, 0, {}]]]}, {"class_name": "TensorFlowOpLayer", "config": {"name": "Tanh_4", "trainable": true, "dtype": "float32", "node_def": {"name": "Tanh_4", "op": "Tanh", "input": ["Softplus_4"], "attr": {"T": {"type": "DT_FLOAT"}}}, "constants": {}}, "name": "tf_op_layer_Tanh_4", "inbound_nodes": [[["tf_op_layer_Softplus_4", 0, 0, {}]]]}, {"class_name": "TensorFlowOpLayer", "config": {"name": "Mul_4", "trainable": true, "dtype": "float32", "node_def": {"name": "Mul_4", "op": "Mul", "input": ["batch_normalization_4/Identity", "Tanh_4"], "attr": {"T": {"type": "DT_FLOAT"}}}, "constants": {}}, "name": "tf_op_layer_Mul_4", "inbound_nodes": [[["batch_normalization_4", 0, 0, {}], ["tf_op_layer_Tanh_4", 0, 0, {}]]]}, {"class_name": "Conv2D", "config": {"name": "conv2d_5", "trainable": true, "dtype": "float32", "filters": 64, "kernel_size": [3, 3], "strides": [1, 1], "padding": "same", "data_format": "channels_last", "dilation_rate": [1, 1], "activation": "linear", "use_bias": false, "kernel_initializer": {"class_name": "GlorotUniform", "config": {"seed": null}}, "bias_initializer": {"class_name": "Zeros", "config": {}}, "kernel_regularizer": null, "bias_regularizer": null, "activity_regularizer": null, "kernel_constraint": null, "bias_constraint": null}, "name": "conv2d_5", "inbound_nodes": [[["tf_op_layer_Mul_4", 0, 0, {}]]]}, {"class_name": "BatchNormalization", "config": {"name": "batch_normalization_5", "trainable": true, "dtype": "float32", "axis": [3], "momentum": 0.99, "epsilon": 0.001, "center": true, "scale": true, "beta_initializer": {"class_name": "Zeros", "config": {}}, "gamma_initializer": {"class_name": "Ones", "config": {}}, "moving_mean_initializer": {"class_name": "Zeros", "config": {}}, "moving_variance_initializer": {"class_name": "Ones", "config": {}}, "beta_regularizer": null, "gamma_regularizer": null, "beta_constraint": null, "gamma_constraint": null}, "name": "batch_normalization_5", "inbound_nodes": [[["conv2d_5", 0, 0, {}]]]}, {"class_name": "TensorFlowOpLayer", "config": {"name": "Softplus_5", "trainable": true, "dtype": "float32", "node_def": {"name": "Softplus_5", "op": "Softplus", "input": ["batch_normalization_5/Identity"], "attr": {"T": {"type": "DT_FLOAT"}}}, "constants": {}}, "name": "tf_op_layer_Softplus_5", "inbound_nodes": [[["batch_normalization_5", 0, 0, {}]]]}, {"class_name": "TensorFlowOpLayer", "config": {"name": "Tanh_5", "trainable": true, "dtype": "float32", "node_def": {"name": "Tanh_5", "op": "Tanh", "input": ["Softplus_5"], "attr": {"T": {"type": "DT_FLOAT"}}}, "constants": {}}, "name": "tf_op_layer_Tanh_5", "inbound_nodes": [[["tf_op_layer_Softplus_5", 0, 0, {}]]]}, {"class_name": "TensorFlowOpLayer", "config": {"name": "Mul_5", "trainable": true, "dtype": "float32", "node_def": {"name": "Mul_5", "op": "Mul", "input": ["batch_normalization_5/Identity", "Tanh_5"], "attr": {"T": {"type": "DT_FLOAT"}}}, "constants": {}}, "name": "tf_op_layer_Mul_5", "inbound_nodes": [[["batch_normalization_5", 0, 0, {}], ["tf_op_layer_Tanh_5", 0, 0, {}]]]}, {"class_name": "TensorFlowOpLayer", "config": {"name": "AddV2", "trainable": true, "dtype": "float32", "node_def": {"name": "AddV2", "op": "AddV2", "input": ["Mul_5", "Mul_3"], "attr": {"T": {"type": "DT_FLOAT"}}}, "constants": {}}, "name": "tf_op_layer_AddV2", "inbound_nodes": [[["tf_op_layer_Mul_5", 0, 0, {}], ["tf_op_layer_Mul_3", 0, 0, {}]]]}, {"class_name": "Conv2D", "config": {"name": "conv2d_6", "trainable": true, "dtype": "float32", "filters": 64, "kernel_size": [1, 1], "strides": [1, 1], "padding": "same", "data_format": "channels_last", "dilation_rate": [1, 1], "activation": "linear", "use_bias": false, "kernel_initializer": {"class_name": "GlorotUniform", "config": {"seed": null}}, "bias_initializer": {"class_name": "Zeros", "config": {}}, "kernel_regularizer": null, "bias_regularizer": null, "activity_regularizer": null, "kernel_constraint": null, "bias_constraint": null}, "name": "conv2d_6", "inbound_nodes": [[["tf_op_layer_AddV2", 0, 0, {}]]]}, {"class_name": "Conv2D", "config": {"name": "conv2d_2", "trainable": true, "dtype": "float32", "filters": 64, "kernel_size": [1, 1], "strides": [1, 1], "padding": "same", "data_format": "channels_last", "dilation_rate": [1, 1], "activation": "linear", "use_bias": false, "kernel_initializer": {"class_name": "GlorotUniform", "config": {"seed": null}}, "bias_initializer": {"class_name": "Zeros", "config": {}}, "kernel_regularizer": null, "bias_regularizer": null, "activity_regularizer": null, "kernel_constraint": null, "bias_constraint": null}, "name": "conv2d_2", "inbound_nodes": [[["tf_op_layer_Mul_1", 0, 0, {}]]]}, {"class_name": "BatchNormalization", "config": {"name": "batch_normalization_6", "trainable": true, "dtype": "float32", "axis": [3], "momentum": 0.99, "epsilon": 0.001, "center": true, "scale": true, "beta_initializer": {"class_name": "Zeros", "config": {}}, "gamma_initializer": {"class_name": "Ones", "config": {}}, "moving_mean_initializer": {"class_name": "Zeros", "config": {}}, "moving_variance_initializer": {"class_name": "Ones", "config": {}}, "beta_regularizer": null, "gamma_regularizer": null, "beta_constraint": null, "gamma_constraint": null}, "name": "batch_normalization_6", "inbound_nodes": [[["conv2d_6", 0, 0, {}]]]}, {"class_name": "BatchNormalization", "config": {"name": "batch_normalization_2", "trainable": true, "dtype": "float32", "axis": [3], "momentum": 0.99, "epsilon": 0.001, "center": true, "scale": true, "beta_initializer": {"class_name": "Zeros", "config": {}}, "gamma_initializer": {"class_name": "Ones", "config": {}}, "moving_mean_initializer": {"class_name": "Zeros", "config": {}}, "moving_variance_initializer": {"class_name": "Ones", "config": {}}, "beta_regularizer": null, "gamma_regularizer": null, "beta_constraint": null, "gamma_constraint": null}, "name": "batch_normalization_2", "inbound_nodes": [[["conv2d_2", 0, 0, {}]]]}, {"class_name": "TensorFlowOpLayer", "config": {"name": "Softplus_6", "trainable": true, "dtype": "float32", "node_def": {"name": "Softplus_6", "op": "Softplus", "input": ["batch_normalization_6/Identity"], "attr": {"T": {"type": "DT_FLOAT"}}}, "constants": {}}, "name": "tf_op_layer_Softplus_6", "inbound_nodes": [[["batch_normalization_6", 0, 0, {}]]]}, {"class_name": "TensorFlowOpLayer", "config": {"name": "Softplus_2", "trainable": true, "dtype": "float32", "node_def": {"name": "Softplus_2", "op": "Softplus", "input": ["batch_normalization_2/Identity"], "attr": {"T": {"type": "DT_FLOAT"}}}, "constants": {}}, "name": "tf_op_layer_Softplus_2", "inbound_nodes": [[["batch_normalization_2", 0, 0, {}]]]}, {"class_name": "TensorFlowOpLayer", "config": {"name": "Tanh_6", "trainable": true, "dtype": "float32", "node_def": {"name": "Tanh_6", "op": "Tanh", "input": ["Softplus_6"], "attr": {"T": {"type": "DT_FLOAT"}}}, "constants": {}}, "name": "tf_op_layer_Tanh_6", "inbound_nodes": [[["tf_op_layer_Softplus_6", 0, 0, {}]]]}, {"class_name": "TensorFlowOpLayer", "config": {"name": "Tanh_2", "trainable": true, "dtype": "float32", "node_def": {"name": "Tanh_2", "op": "Tanh", "input": ["Softplus_2"], "attr": {"T": {"type": "DT_FLOAT"}}}, "constants": {}}, "name": "tf_op_layer_Tanh_2", "inbound_nodes": [[["tf_op_layer_Softplus_2", 0, 0, {}]]]}, {"class_name": "TensorFlowOpLayer", "config": {"name": "Mul_6", "trainable": true, "dtype": "float32", "node_def": {"name": "Mul_6", "op": "Mul", "input": ["batch_normalization_6/Identity", "Tanh_6"], "attr": {"T": {"type": "DT_FLOAT"}}}, "constants": {}}, "name": "tf_op_layer_Mul_6", "inbound_nodes": [[["batch_normalization_6", 0, 0, {}], ["tf_op_layer_Tanh_6", 0, 0, {}]]]}, {"class_name": "TensorFlowOpLayer", "config": {"name": "Mul_2", "trainable": true, "dtype": "float32", "node_def": {"name": "Mul_2", "op": "Mul", "input": ["batch_normalization_2/Identity", "Tanh_2"], "attr": {"T": {"type": "DT_FLOAT"}}}, "constants": {}}, "name": "tf_op_layer_Mul_2", "inbound_nodes": [[["batch_normalization_2", 0, 0, {}], ["tf_op_layer_Tanh_2", 0, 0, {}]]]}, {"class_name": "Concatenate", "config": {"name": "concatenate", "trainable": true, "dtype": "float32", "axis": -1}, "name": "concatenate", "inbound_nodes": [[["tf_op_layer_Mul_6", 0, 0, {}], ["tf_op_layer_Mul_2", 0, 0, {}]]]}, {"class_name": "Conv2D", "config": {"name": "conv2d_7", "trainable": true, "dtype": "float32", "filters": 64, "kernel_size": [1, 1], "strides": [1, 1], "padding": "same", "data_format": "channels_last", "dilation_rate": [1, 1], "activation": "linear", "use_bias": false, "kernel_initializer": {"class_name": "GlorotUniform", "config": {"seed": null}}, "bias_initializer": {"class_name": "Zeros", "config": {}}, "kernel_regularizer": null, "bias_regularizer": null, "activity_regularizer": null, "kernel_constraint": null, "bias_constraint": null}, "name": "conv2d_7", "inbound_nodes": [[["concatenate", 0, 0, {}]]]}, {"class_name": "BatchNormalization", "config": {"name": "batch_normalization_7", "trainable": true, "dtype": "float32", "axis": [3], "momentum": 0.99, "epsilon": 0.001, "center": true, "scale": true, "beta_initializer": {"class_name": "Zeros", "config": {}}, "gamma_initializer": {"class_name": "Ones", "config": {}}, "moving_mean_initializer": {"class_name": "Zeros", "config": {}}, "moving_variance_initializer": {"class_name": "Ones", "config": {}}, "beta_regularizer": null, "gamma_regularizer": null, "beta_constraint": null, "gamma_constraint": null}, "name": "batch_normalization_7", "inbound_nodes": [[["conv2d_7", 0, 0, {}]]]}, {"class_name": "TensorFlowOpLayer", "config": {"name": "Softplus_7", "trainable": true, "dtype": "float32", "node_def": {"name": "Softplus_7", "op": "Softplus", "input": ["batch_normalization_7/Identity"], "attr": {"T": {"type": "DT_FLOAT"}}}, "constants": {}}, "name": "tf_op_layer_Softplus_7", "inbound_nodes": [[["batch_normalization_7", 0, 0, {}]]]}, {"class_name": "TensorFlowOpLayer", "config": {"name": "Tanh_7", "trainable": true, "dtype": "float32", "node_def": {"name": "Tanh_7", "op": "Tanh", "input": ["Softplus_7"], "attr": {"T": {"type": "DT_FLOAT"}}}, "constants": {}}, "name": "tf_op_layer_Tanh_7", "inbound_nodes": [[["tf_op_layer_Softplus_7", 0, 0, {}]]]}, {"class_name": "TensorFlowOpLayer", "config": {"name": "Mul_7", "trainable": true, "dtype": "float32", "node_def": {"name": "Mul_7", "op": "Mul", "input": ["batch_normalization_7/Identity", "Tanh_7"], "attr": {"T": {"type": "DT_FLOAT"}}}, "constants": {}}, "name": "tf_op_layer_Mul_7", "inbound_nodes": [[["batch_normalization_7", 0, 0, {}], ["tf_op_layer_Tanh_7", 0, 0, {}]]]}, {"class_name": "ZeroPadding2D", "config": {"name": "zero_padding2d_1", "trainable": true, "dtype": "float32", "padding": [[1, 0], [1, 0]], "data_format": "channels_last"}, "name": "zero_padding2d_1", "inbound_nodes": [[["tf_op_layer_Mul_7", 0, 0, {}]]]}, {"class_name": "Conv2D", "config": {"name": "conv2d_8", "trainable": true, "dtype": "float32", "filters": 128, "kernel_size": [3, 3], "strides": [2, 2], "padding": "valid", "data_format": "channels_last", "dilation_rate": [1, 1], "activation": "linear", "use_bias": false, "kernel_initializer": {"class_name": "GlorotUniform", "config": {"seed": null}}, "bias_initializer": {"class_name": "Zeros", "config": {}}, "kernel_regularizer": null, "bias_regularizer": null, "activity_regularizer": null, "kernel_constraint": null, "bias_constraint": null}, "name": "conv2d_8", "inbound_nodes": [[["zero_padding2d_1", 0, 0, {}]]]}, {"class_name": "BatchNormalization", "config": {"name": "batch_normalization_8", "trainable": true, "dtype": "float32", "axis": [3], "momentum": 0.99, "epsilon": 0.001, "center": true, "scale": true, "beta_initializer": {"class_name": "Zeros", "config": {}}, "gamma_initializer": {"class_name": "Ones", "config": {}}, "moving_mean_initializer": {"class_name": "Zeros", "config": {}}, "moving_variance_initializer": {"class_name": "Ones", "config": {}}, "beta_regularizer": null, "gamma_regularizer": null, "beta_constraint": null, "gamma_constraint": null}, "name": "batch_normalization_8", "inbound_nodes": [[["conv2d_8", 0, 0, {}]]]}, {"class_name": "TensorFlowOpLayer", "config": {"name": "Softplus_8", "trainable": true, "dtype": "float32", "node_def": {"name": "Softplus_8", "op": "Softplus", "input": ["batch_normalization_8/Identity"], "attr": {"T": {"type": "DT_FLOAT"}}}, "constants": {}}, "name": "tf_op_layer_Softplus_8", "inbound_nodes": [[["batch_normalization_8", 0, 0, {}]]]}, {"class_name": "TensorFlowOpLayer", "config": {"name": "Tanh_8", "trainable": true, "dtype": "float32", "node_def": {"name": "Tanh_8", "op": "Tanh", "input": ["Softplus_8"], "attr": {"T": {"type": "DT_FLOAT"}}}, "constants": {}}, "name": "tf_op_layer_Tanh_8", "inbound_nodes": [[["tf_op_layer_Softplus_8", 0, 0, {}]]]}, {"class_name": "TensorFlowOpLayer", "config": {"name": "Mul_8", "trainable": true, "dtype": "float32", "node_def": {"name": "Mul_8", "op": "Mul", "input": ["batch_normalization_8/Identity", "Tanh_8"], "attr": {"T": {"type": "DT_FLOAT"}}}, "constants": {}}, "name": "tf_op_layer_Mul_8", "inbound_nodes": [[["batch_normalization_8", 0, 0, {}], ["tf_op_layer_Tanh_8", 0, 0, {}]]]}, {"class_name": "Conv2D", "config": {"name": "conv2d_10", "trainable": true, "dtype": "float32", "filters": 64, "kernel_size": [1, 1], "strides": [1, 1], "padding": "same", "data_format": "channels_last", "dilation_rate": [1, 1], "activation": "linear", "use_bias": false, "kernel_initializer": {"class_name": "GlorotUniform", "config": {"seed": null}}, "bias_initializer": {"class_name": "Zeros", "config": {}}, "kernel_regularizer": null, "bias_regularizer": null, "activity_regularizer": null, "kernel_constraint": null, "bias_constraint": null}, "name": "conv2d_10", "inbound_nodes": [[["tf_op_layer_Mul_8", 0, 0, {}]]]}, {"class_name": "BatchNormalization", "config": {"name": "batch_normalization_10", "trainable": true, "dtype": "float32", "axis": [3], "momentum": 0.99, "epsilon": 0.001, "center": true, "scale": true, "beta_initializer": {"class_name": "Zeros", "config": {}}, "gamma_initializer": {"class_name": "Ones", "config": {}}, "moving_mean_initializer": {"class_name": "Zeros", "config": {}}, "moving_variance_initializer": {"class_name": "Ones", "config": {}}, "beta_regularizer": null, "gamma_regularizer": null, "beta_constraint": null, "gamma_constraint": null}, "name": "batch_normalization_10", "inbound_nodes": [[["conv2d_10", 0, 0, {}]]]}, {"class_name": "TensorFlowOpLayer", "config": {"name": "Softplus_10", "trainable": true, "dtype": "float32", "node_def": {"name": "Softplus_10", "op": "Softplus", "input": ["batch_normalization_10/Identity"], "attr": {"T": {"type": "DT_FLOAT"}}}, "constants": {}}, "name": "tf_op_layer_Softplus_10", "inbound_nodes": [[["batch_normalization_10", 0, 0, {}]]]}, {"class_name": "TensorFlowOpLayer", "config": {"name": "Tanh_10", "trainable": true, "dtype": "float32", "node_def": {"name": "Tanh_10", "op": "Tanh", "input": ["Softplus_10"], "attr": {"T": {"type": "DT_FLOAT"}}}, "constants": {}}, "name": "tf_op_layer_Tanh_10", "inbound_nodes": [[["tf_op_layer_Softplus_10", 0, 0, {}]]]}, {"class_name": "TensorFlowOpLayer", "config": {"name": "Mul_10", "trainable": true, "dtype": "float32", "node_def": {"name": "Mul_10", "op": "Mul", "input": ["batch_normalization_10/Identity", "Tanh_10"], "attr": {"T": {"type": "DT_FLOAT"}}}, "constants": {}}, "name": "tf_op_layer_Mul_10", "inbound_nodes": [[["batch_normalization_10", 0, 0, {}], ["tf_op_layer_Tanh_10", 0, 0, {}]]]}, {"class_name": "Conv2D", "config": {"name": "conv2d_11", "trainable": true, "dtype": "float32", "filters": 64, "kernel_size": [1, 1], "strides": [1, 1], "padding": "same", "data_format": "channels_last", "dilation_rate": [1, 1], "activation": "linear", "use_bias": false, "kernel_initializer": {"class_name": "GlorotUniform", "config": {"seed": null}}, "bias_initializer": {"class_name": "Zeros", "config": {}}, "kernel_regularizer": null, "bias_regularizer": null, "activity_regularizer": null, "kernel_constraint": null, "bias_constraint": null}, "name": "conv2d_11", "inbound_nodes": [[["tf_op_layer_Mul_10", 0, 0, {}]]]}, {"class_name": "BatchNormalization", "config": {"name": "batch_normalization_11", "trainable": true, "dtype": "float32", "axis": [3], "momentum": 0.99, "epsilon": 0.001, "center": true, "scale": true, "beta_initializer": {"class_name": "Zeros", "config": {}}, "gamma_initializer": {"class_name": "Ones", "config": {}}, "moving_mean_initializer": {"class_name": "Zeros", "config": {}}, "moving_variance_initializer": {"class_name": "Ones", "config": {}}, "beta_regularizer": null, "gamma_regularizer": null, "beta_constraint": null, "gamma_constraint": null}, "name": "batch_normalization_11", "inbound_nodes": [[["conv2d_11", 0, 0, {}]]]}, {"class_name": "TensorFlowOpLayer", "config": {"name": "Softplus_11", "trainable": true, "dtype": "float32", "node_def": {"name": "Softplus_11", "op": "Softplus", "input": ["batch_normalization_11/Identity"], "attr": {"T": {"type": "DT_FLOAT"}}}, "constants": {}}, "name": "tf_op_layer_Softplus_11", "inbound_nodes": [[["batch_normalization_11", 0, 0, {}]]]}, {"class_name": "TensorFlowOpLayer", "config": {"name": "Tanh_11", "trainable": true, "dtype": "float32", "node_def": {"name": "Tanh_11", "op": "Tanh", "input": ["Softplus_11"], "attr": {"T": {"type": "DT_FLOAT"}}}, "constants": {}}, "name": "tf_op_layer_Tanh_11", "inbound_nodes": [[["tf_op_layer_Softplus_11", 0, 0, {}]]]}, {"class_name": "TensorFlowOpLayer", "config": {"name": "Mul_11", "trainable": true, "dtype": "float32", "node_def": {"name": "Mul_11", "op": "Mul", "input": ["batch_normalization_11/Identity", "Tanh_11"], "attr": {"T": {"type": "DT_FLOAT"}}}, "constants": {}}, "name": "tf_op_layer_Mul_11", "inbound_nodes": [[["batch_normalization_11", 0, 0, {}], ["tf_op_layer_Tanh_11", 0, 0, {}]]]}, {"class_name": "Conv2D", "config": {"name": "conv2d_12", "trainable": true, "dtype": "float32", "filters": 64, "kernel_size": [3, 3], "strides": [1, 1], "padding": "same", "data_format": "channels_last", "dilation_rate": [1, 1], "activation": "linear", "use_bias": false, "kernel_initializer": {"class_name": "GlorotUniform", "config": {"seed": null}}, "bias_initializer": {"class_name": "Zeros", "config": {}}, "kernel_regularizer": null, "bias_regularizer": null, "activity_regularizer": null, "kernel_constraint": null, "bias_constraint": null}, "name": "conv2d_12", "inbound_nodes": [[["tf_op_layer_Mul_11", 0, 0, {}]]]}, {"class_name": "BatchNormalization", "config": {"name": "batch_normalization_12", "trainable": true, "dtype": "float32", "axis": [3], "momentum": 0.99, "epsilon": 0.001, "center": true, "scale": true, "beta_initializer": {"class_name": "Zeros", "config": {}}, "gamma_initializer": {"class_name": "Ones", "config": {}}, "moving_mean_initializer": {"class_name": "Zeros", "config": {}}, "moving_variance_initializer": {"class_name": "Ones", "config": {}}, "beta_regularizer": null, "gamma_regularizer": null, "beta_constraint": null, "gamma_constraint": null}, "name": "batch_normalization_12", "inbound_nodes": [[["conv2d_12", 0, 0, {}]]]}, {"class_name": "TensorFlowOpLayer", "config": {"name": "Softplus_12", "trainable": true, "dtype": "float32", "node_def": {"name": "Softplus_12", "op": "Softplus", "input": ["batch_normalization_12/Identity"], "attr": {"T": {"type": "DT_FLOAT"}}}, "constants": {}}, "name": "tf_op_layer_Softplus_12", "inbound_nodes": [[["batch_normalization_12", 0, 0, {}]]]}, {"class_name": "TensorFlowOpLayer", "config": {"name": "Tanh_12", "trainable": true, "dtype": "float32", "node_def": {"name": "Tanh_12", "op": "Tanh", "input": ["Softplus_12"], "attr": {"T": {"type": "DT_FLOAT"}}}, "constants": {}}, "name": "tf_op_layer_Tanh_12", "inbound_nodes": [[["tf_op_layer_Softplus_12", 0, 0, {}]]]}, {"class_name": "TensorFlowOpLayer", "config": {"name": "Mul_12", "trainable": true, "dtype": "float32", "node_def": {"name": "Mul_12", "op": "Mul", "input": ["batch_normalization_12/Identity", "Tanh_12"], "attr": {"T": {"type": "DT_FLOAT"}}}, "constants": {}}, "name": "tf_op_layer_Mul_12", "inbound_nodes": [[["batch_normalization_12", 0, 0, {}], ["tf_op_layer_Tanh_12", 0, 0, {}]]]}, {"class_name": "TensorFlowOpLayer", "config": {"name": "AddV2_1", "trainable": true, "dtype": "float32", "node_def": {"name": "AddV2_1", "op": "AddV2", "input": ["Mul_12", "Mul_10"], "attr": {"T": {"type": "DT_FLOAT"}}}, "constants": {}}, "name": "tf_op_layer_AddV2_1", "inbound_nodes": [[["tf_op_layer_Mul_12", 0, 0, {}], ["tf_op_layer_Mul_10", 0, 0, {}]]]}, {"class_name": "Conv2D", "config": {"name": "conv2d_13", "trainable": true, "dtype": "float32", "filters": 64, "kernel_size": [1, 1], "strides": [1, 1], "padding": "same", "data_format": "channels_last", "dilation_rate": [1, 1], "activation": "linear", "use_bias": false, "kernel_initializer": {"class_name": "GlorotUniform", "config": {"seed": null}}, "bias_initializer": {"class_name": "Zeros", "config": {}}, "kernel_regularizer": null, "bias_regularizer": null, "activity_regularizer": null, "kernel_constraint": null, "bias_constraint": null}, "name": "conv2d_13", "inbound_nodes": [[["tf_op_layer_AddV2_1", 0, 0, {}]]]}, {"class_name": "BatchNormalization", "config": {"name": "batch_normalization_13", "trainable": true, "dtype": "float32", "axis": [3], "momentum": 0.99, "epsilon": 0.001, "center": true, "scale": true, "beta_initializer": {"class_name": "Zeros", "config": {}}, "gamma_initializer": {"class_name": "Ones", "config": {}}, "moving_mean_initializer": {"class_name": "Zeros", "config": {}}, "moving_variance_initializer": {"class_name": "Ones", "config": {}}, "beta_regularizer": null, "gamma_regularizer": null, "beta_constraint": null, "gamma_constraint": null}, "name": "batch_normalization_13", "inbound_nodes": [[["conv2d_13", 0, 0, {}]]]}, {"class_name": "TensorFlowOpLayer", "config": {"name": "Softplus_13", "trainable": true, "dtype": "float32", "node_def": {"name": "Softplus_13", "op": "Softplus", "input": ["batch_normalization_13/Identity"], "attr": {"T": {"type": "DT_FLOAT"}}}, "constants": {}}, "name": "tf_op_layer_Softplus_13", "inbound_nodes": [[["batch_normalization_13", 0, 0, {}]]]}, {"class_name": "TensorFlowOpLayer", "config": {"name": "Tanh_13", "trainable": true, "dtype": "float32", "node_def": {"name": "Tanh_13", "op": "Tanh", "input": ["Softplus_13"], "attr": {"T": {"type": "DT_FLOAT"}}}, "constants": {}}, "name": "tf_op_layer_Tanh_13", "inbound_nodes": [[["tf_op_layer_Softplus_13", 0, 0, {}]]]}, {"class_name": "TensorFlowOpLayer", "config": {"name": "Mul_13", "trainable": true, "dtype": "float32", "node_def": {"name": "Mul_13", "op": "Mul", "input": ["batch_normalization_13/Identity", "Tanh_13"], "attr": {"T": {"type": "DT_FLOAT"}}}, "constants": {}}, "name": "tf_op_layer_Mul_13", "inbound_nodes": [[["batch_normalization_13", 0, 0, {}], ["tf_op_layer_Tanh_13", 0, 0, {}]]]}, {"class_name": "Conv2D", "config": {"name": "conv2d_14", "trainable": true, "dtype": "float32", "filters": 64, "kernel_size": [3, 3], "strides": [1, 1], "padding": "same", "data_format": "channels_last", "dilation_rate": [1, 1], "activation": "linear", "use_bias": false, "kernel_initializer": {"class_name": "GlorotUniform", "config": {"seed": null}}, "bias_initializer": {"class_name": "Zeros", "config": {}}, "kernel_regularizer": null, "bias_regularizer": null, "activity_regularizer": null, "kernel_constraint": null, "bias_constraint": null}, "name": "conv2d_14", "inbound_nodes": [[["tf_op_layer_Mul_13", 0, 0, {}]]]}, {"class_name": "BatchNormalization", "config": {"name": "batch_normalization_14", "trainable": true, "dtype": "float32", "axis": [3], "momentum": 0.99, "epsilon": 0.001, "center": true, "scale": true, "beta_initializer": {"class_name": "Zeros", "config": {}}, "gamma_initializer": {"class_name": "Ones", "config": {}}, "moving_mean_initializer": {"class_name": "Zeros", "config": {}}, "moving_variance_initializer": {"class_name": "Ones", "config": {}}, "beta_regularizer": null, "gamma_regularizer": null, "beta_constraint": null, "gamma_constraint": null}, "name": "batch_normalization_14", "inbound_nodes": [[["conv2d_14", 0, 0, {}]]]}, {"class_name": "TensorFlowOpLayer", "config": {"name": "Softplus_14", "trainable": true, "dtype": "float32", "node_def": {"name": "Softplus_14", "op": "Softplus", "input": ["batch_normalization_14/Identity"], "attr": {"T": {"type": "DT_FLOAT"}}}, "constants": {}}, "name": "tf_op_layer_Softplus_14", "inbound_nodes": [[["batch_normalization_14", 0, 0, {}]]]}, {"class_name": "TensorFlowOpLayer", "config": {"name": "Tanh_14", "trainable": true, "dtype": "float32", "node_def": {"name": "Tanh_14", "op": "Tanh", "input": ["Softplus_14"], "attr": {"T": {"type": "DT_FLOAT"}}}, "constants": {}}, "name": "tf_op_layer_Tanh_14", "inbound_nodes": [[["tf_op_layer_Softplus_14", 0, 0, {}]]]}, {"class_name": "TensorFlowOpLayer", "config": {"name": "Mul_14", "trainable": true, "dtype": "float32", "node_def": {"name": "Mul_14", "op": "Mul", "input": ["batch_normalization_14/Identity", "Tanh_14"], "attr": {"T": {"type": "DT_FLOAT"}}}, "constants": {}}, "name": "tf_op_layer_Mul_14", "inbound_nodes": [[["batch_normalization_14", 0, 0, {}], ["tf_op_layer_Tanh_14", 0, 0, {}]]]}, {"class_name": "TensorFlowOpLayer", "config": {"name": "AddV2_2", "trainable": true, "dtype": "float32", "node_def": {"name": "AddV2_2", "op": "AddV2", "input": ["Mul_14", "AddV2_1"], "attr": {"T": {"type": "DT_FLOAT"}}}, "constants": {}}, "name": "tf_op_layer_AddV2_2", "inbound_nodes": [[["tf_op_layer_Mul_14", 0, 0, {}], ["tf_op_layer_AddV2_1", 0, 0, {}]]]}, {"class_name": "Conv2D", "config": {"name": "conv2d_15", "trainable": true, "dtype": "float32", "filters": 64, "kernel_size": [1, 1], "strides": [1, 1], "padding": "same", "data_format": "channels_last", "dilation_rate": [1, 1], "activation": "linear", "use_bias": false, "kernel_initializer": {"class_name": "GlorotUniform", "config": {"seed": null}}, "bias_initializer": {"class_name": "Zeros", "config": {}}, "kernel_regularizer": null, "bias_regularizer": null, "activity_regularizer": null, "kernel_constraint": null, "bias_constraint": null}, "name": "conv2d_15", "inbound_nodes": [[["tf_op_layer_AddV2_2", 0, 0, {}]]]}, {"class_name": "Conv2D", "config": {"name": "conv2d_9", "trainable": true, "dtype": "float32", "filters": 64, "kernel_size": [1, 1], "strides": [1, 1], "padding": "same", "data_format": "channels_last", "dilation_rate": [1, 1], "activation": "linear", "use_bias": false, "kernel_initializer": {"class_name": "GlorotUniform", "config": {"seed": null}}, "bias_initializer": {"class_name": "Zeros", "config": {}}, "kernel_regularizer": null, "bias_regularizer": null, "activity_regularizer": null, "kernel_constraint": null, "bias_constraint": null}, "name": "conv2d_9", "inbound_nodes": [[["tf_op_layer_Mul_8", 0, 0, {}]]]}, {"class_name": "BatchNormalization", "config": {"name": "batch_normalization_15", "trainable": true, "dtype": "float32", "axis": [3], "momentum": 0.99, "epsilon": 0.001, "center": true, "scale": true, "beta_initializer": {"class_name": "Zeros", "config": {}}, "gamma_initializer": {"class_name": "Ones", "config": {}}, "moving_mean_initializer": {"class_name": "Zeros", "config": {}}, "moving_variance_initializer": {"class_name": "Ones", "config": {}}, "beta_regularizer": null, "gamma_regularizer": null, "beta_constraint": null, "gamma_constraint": null}, "name": "batch_normalization_15", "inbound_nodes": [[["conv2d_15", 0, 0, {}]]]}, {"class_name": "BatchNormalization", "config": {"name": "batch_normalization_9", "trainable": true, "dtype": "float32", "axis": [3], "momentum": 0.99, "epsilon": 0.001, "center": true, "scale": true, "beta_initializer": {"class_name": "Zeros", "config": {}}, "gamma_initializer": {"class_name": "Ones", "config": {}}, "moving_mean_initializer": {"class_name": "Zeros", "config": {}}, "moving_variance_initializer": {"class_name": "Ones", "config": {}}, "beta_regularizer": null, "gamma_regularizer": null, "beta_constraint": null, "gamma_constraint": null}, "name": "batch_normalization_9", "inbound_nodes": [[["conv2d_9", 0, 0, {}]]]}, {"class_name": "TensorFlowOpLayer", "config": {"name": "Softplus_15", "trainable": true, "dtype": "float32", "node_def": {"name": "Softplus_15", "op": "Softplus", "input": ["batch_normalization_15/Identity"], "attr": {"T": {"type": "DT_FLOAT"}}}, "constants": {}}, "name": "tf_op_layer_Softplus_15", "inbound_nodes": [[["batch_normalization_15", 0, 0, {}]]]}, {"class_name": "TensorFlowOpLayer", "config": {"name": "Softplus_9", "trainable": true, "dtype": "float32", "node_def": {"name": "Softplus_9", "op": "Softplus", "input": ["batch_normalization_9/Identity"], "attr": {"T": {"type": "DT_FLOAT"}}}, "constants": {}}, "name": "tf_op_layer_Softplus_9", "inbound_nodes": [[["batch_normalization_9", 0, 0, {}]]]}, {"class_name": "TensorFlowOpLayer", "config": {"name": "Tanh_15", "trainable": true, "dtype": "float32", "node_def": {"name": "Tanh_15", "op": "Tanh", "input": ["Softplus_15"], "attr": {"T": {"type": "DT_FLOAT"}}}, "constants": {}}, "name": "tf_op_layer_Tanh_15", "inbound_nodes": [[["tf_op_layer_Softplus_15", 0, 0, {}]]]}, {"class_name": "TensorFlowOpLayer", "config": {"name": "Tanh_9", "trainable": true, "dtype": "float32", "node_def": {"name": "Tanh_9", "op": "Tanh", "input": ["Softplus_9"], "attr": {"T": {"type": "DT_FLOAT"}}}, "constants": {}}, "name": "tf_op_layer_Tanh_9", "inbound_nodes": [[["tf_op_layer_Softplus_9", 0, 0, {}]]]}, {"class_name": "TensorFlowOpLayer", "config": {"name": "Mul_15", "trainable": true, "dtype": "float32", "node_def": {"name": "Mul_15", "op": "Mul", "input": ["batch_normalization_15/Identity", "Tanh_15"], "attr": {"T": {"type": "DT_FLOAT"}}}, "constants": {}}, "name": "tf_op_layer_Mul_15", "inbound_nodes": [[["batch_normalization_15", 0, 0, {}], ["tf_op_layer_Tanh_15", 0, 0, {}]]]}, {"class_name": "TensorFlowOpLayer", "config": {"name": "Mul_9", "trainable": true, "dtype": "float32", "node_def": {"name": "Mul_9", "op": "Mul", "input": ["batch_normalization_9/Identity", "Tanh_9"], "attr": {"T": {"type": "DT_FLOAT"}}}, "constants": {}}, "name": "tf_op_layer_Mul_9", "inbound_nodes": [[["batch_normalization_9", 0, 0, {}], ["tf_op_layer_Tanh_9", 0, 0, {}]]]}, {"class_name": "Concatenate", "config": {"name": "concatenate_1", "trainable": true, "dtype": "float32", "axis": -1}, "name": "concatenate_1", "inbound_nodes": [[["tf_op_layer_Mul_15", 0, 0, {}], ["tf_op_layer_Mul_9", 0, 0, {}]]]}, {"class_name": "Conv2D", "config": {"name": "conv2d_16", "trainable": true, "dtype": "float32", "filters": 128, "kernel_size": [1, 1], "strides": [1, 1], "padding": "same", "data_format": "channels_last", "dilation_rate": [1, 1], "activation": "linear", "use_bias": false, "kernel_initializer": {"class_name": "GlorotUniform", "config": {"seed": null}}, "bias_initializer": {"class_name": "Zeros", "config": {}}, "kernel_regularizer": null, "bias_regularizer": null, "activity_regularizer": null, "kernel_constraint": null, "bias_constraint": null}, "name": "conv2d_16", "inbound_nodes": [[["concatenate_1", 0, 0, {}]]]}, {"class_name": "BatchNormalization", "config": {"name": "batch_normalization_16", "trainable": true, "dtype": "float32", "axis": [3], "momentum": 0.99, "epsilon": 0.001, "center": true, "scale": true, "beta_initializer": {"class_name": "Zeros", "config": {}}, "gamma_initializer": {"class_name": "Ones", "config": {}}, "moving_mean_initializer": {"class_name": "Zeros", "config": {}}, "moving_variance_initializer": {"class_name": "Ones", "config": {}}, "beta_regularizer": null, "gamma_regularizer": null, "beta_constraint": null, "gamma_constraint": null}, "name": "batch_normalization_16", "inbound_nodes": [[["conv2d_16", 0, 0, {}]]]}, {"class_name": "TensorFlowOpLayer", "config": {"name": "Softplus_16", "trainable": true, "dtype": "float32", "node_def": {"name": "Softplus_16", "op": "Softplus", "input": ["batch_normalization_16/Identity"], "attr": {"T": {"type": "DT_FLOAT"}}}, "constants": {}}, "name": "tf_op_layer_Softplus_16", "inbound_nodes": [[["batch_normalization_16", 0, 0, {}]]]}, {"class_name": "TensorFlowOpLayer", "config": {"name": "Tanh_16", "trainable": true, "dtype": "float32", "node_def": {"name": "Tanh_16", "op": "Tanh", "input": ["Softplus_16"], "attr": {"T": {"type": "DT_FLOAT"}}}, "constants": {}}, "name": "tf_op_layer_Tanh_16", "inbound_nodes": [[["tf_op_layer_Softplus_16", 0, 0, {}]]]}, {"class_name": "TensorFlowOpLayer", "config": {"name": "Mul_16", "trainable": true, "dtype": "float32", "node_def": {"name": "Mul_16", "op": "Mul", "input": ["batch_normalization_16/Identity", "Tanh_16"], "attr": {"T": {"type": "DT_FLOAT"}}}, "constants": {}}, "name": "tf_op_layer_Mul_16", "inbound_nodes": [[["batch_normalization_16", 0, 0, {}], ["tf_op_layer_Tanh_16", 0, 0, {}]]]}, {"class_name": "ZeroPadding2D", "config": {"name": "zero_padding2d_2", "trainable": true, "dtype": "float32", "padding": [[1, 0], [1, 0]], "data_format": "channels_last"}, "name": "zero_padding2d_2", "inbound_nodes": [[["tf_op_layer_Mul_16", 0, 0, {}]]]}, {"class_name": "Conv2D", "config": {"name": "conv2d_17", "trainable": true, "dtype": "float32", "filters": 256, "kernel_size": [3, 3], "strides": [2, 2], "padding": "valid", "data_format": "channels_last", "dilation_rate": [1, 1], "activation": "linear", "use_bias": false, "kernel_initializer": {"class_name": "GlorotUniform", "config": {"seed": null}}, "bias_initializer": {"class_name": "Zeros", "config": {}}, "kernel_regularizer": null, "bias_regularizer": null, "activity_regularizer": null, "kernel_constraint": null, "bias_constraint": null}, "name": "conv2d_17", "inbound_nodes": [[["zero_padding2d_2", 0, 0, {}]]]}, {"class_name": "BatchNormalization", "config": {"name": "batch_normalization_17", "trainable": true, "dtype": "float32", "axis": [3], "momentum": 0.99, "epsilon": 0.001, "center": true, "scale": true, "beta_initializer": {"class_name": "Zeros", "config": {}}, "gamma_initializer": {"class_name": "Ones", "config": {}}, "moving_mean_initializer": {"class_name": "Zeros", "config": {}}, "moving_variance_initializer": {"class_name": "Ones", "config": {}}, "beta_regularizer": null, "gamma_regularizer": null, "beta_constraint": null, "gamma_constraint": null}, "name": "batch_normalization_17", "inbound_nodes": [[["conv2d_17", 0, 0, {}]]]}, {"class_name": "TensorFlowOpLayer", "config": {"name": "Softplus_17", "trainable": true, "dtype": "float32", "node_def": {"name": "Softplus_17", "op": "Softplus", "input": ["batch_normalization_17/Identity"], "attr": {"T": {"type": "DT_FLOAT"}}}, "constants": {}}, "name": "tf_op_layer_Softplus_17", "inbound_nodes": [[["batch_normalization_17", 0, 0, {}]]]}, {"class_name": "TensorFlowOpLayer", "config": {"name": "Tanh_17", "trainable": true, "dtype": "float32", "node_def": {"name": "Tanh_17", "op": "Tanh", "input": ["Softplus_17"], "attr": {"T": {"type": "DT_FLOAT"}}}, "constants": {}}, "name": "tf_op_layer_Tanh_17", "inbound_nodes": [[["tf_op_layer_Softplus_17", 0, 0, {}]]]}, {"class_name": "TensorFlowOpLayer", "config": {"name": "Mul_17", "trainable": true, "dtype": "float32", "node_def": {"name": "Mul_17", "op": "Mul", "input": ["batch_normalization_17/Identity", "Tanh_17"], "attr": {"T": {"type": "DT_FLOAT"}}}, "constants": {}}, "name": "tf_op_layer_Mul_17", "inbound_nodes": [[["batch_normalization_17", 0, 0, {}], ["tf_op_layer_Tanh_17", 0, 0, {}]]]}, {"class_name": "Conv2D", "config": {"name": "conv2d_19", "trainable": true, "dtype": "float32", "filters": 128, "kernel_size": [1, 1], "strides": [1, 1], "padding": "same", "data_format": "channels_last", "dilation_rate": [1, 1], "activation": "linear", "use_bias": false, "kernel_initializer": {"class_name": "GlorotUniform", "config": {"seed": null}}, "bias_initializer": {"class_name": "Zeros", "config": {}}, "kernel_regularizer": null, "bias_regularizer": null, "activity_regularizer": null, "kernel_constraint": null, "bias_constraint": null}, "name": "conv2d_19", "inbound_nodes": [[["tf_op_layer_Mul_17", 0, 0, {}]]]}, {"class_name": "BatchNormalization", "config": {"name": "batch_normalization_19", "trainable": true, "dtype": "float32", "axis": [3], "momentum": 0.99, "epsilon": 0.001, "center": true, "scale": true, "beta_initializer": {"class_name": "Zeros", "config": {}}, "gamma_initializer": {"class_name": "Ones", "config": {}}, "moving_mean_initializer": {"class_name": "Zeros", "config": {}}, "moving_variance_initializer": {"class_name": "Ones", "config": {}}, "beta_regularizer": null, "gamma_regularizer": null, "beta_constraint": null, "gamma_constraint": null}, "name": "batch_normalization_19", "inbound_nodes": [[["conv2d_19", 0, 0, {}]]]}, {"class_name": "TensorFlowOpLayer", "config": {"name": "Softplus_19", "trainable": true, "dtype": "float32", "node_def": {"name": "Softplus_19", "op": "Softplus", "input": ["batch_normalization_19/Identity"], "attr": {"T": {"type": "DT_FLOAT"}}}, "constants": {}}, "name": "tf_op_layer_Softplus_19", "inbound_nodes": [[["batch_normalization_19", 0, 0, {}]]]}, {"class_name": "TensorFlowOpLayer", "config": {"name": "Tanh_19", "trainable": true, "dtype": "float32", "node_def": {"name": "Tanh_19", "op": "Tanh", "input": ["Softplus_19"], "attr": {"T": {"type": "DT_FLOAT"}}}, "constants": {}}, "name": "tf_op_layer_Tanh_19", "inbound_nodes": [[["tf_op_layer_Softplus_19", 0, 0, {}]]]}, {"class_name": "TensorFlowOpLayer", "config": {"name": "Mul_19", "trainable": true, "dtype": "float32", "node_def": {"name": "Mul_19", "op": "Mul", "input": ["batch_normalization_19/Identity", "Tanh_19"], "attr": {"T": {"type": "DT_FLOAT"}}}, "constants": {}}, "name": "tf_op_layer_Mul_19", "inbound_nodes": [[["batch_normalization_19", 0, 0, {}], ["tf_op_layer_Tanh_19", 0, 0, {}]]]}, {"class_name": "Conv2D", "config": {"name": "conv2d_20", "trainable": true, "dtype": "float32", "filters": 128, "kernel_size": [1, 1], "strides": [1, 1], "padding": "same", "data_format": "channels_last", "dilation_rate": [1, 1], "activation": "linear", "use_bias": false, "kernel_initializer": {"class_name": "GlorotUniform", "config": {"seed": null}}, "bias_initializer": {"class_name": "Zeros", "config": {}}, "kernel_regularizer": null, "bias_regularizer": null, "activity_regularizer": null, "kernel_constraint": null, "bias_constraint": null}, "name": "conv2d_20", "inbound_nodes": [[["tf_op_layer_Mul_19", 0, 0, {}]]]}, {"class_name": "BatchNormalization", "config": {"name": "batch_normalization_20", "trainable": true, "dtype": "float32", "axis": [3], "momentum": 0.99, "epsilon": 0.001, "center": true, "scale": true, "beta_initializer": {"class_name": "Zeros", "config": {}}, "gamma_initializer": {"class_name": "Ones", "config": {}}, "moving_mean_initializer": {"class_name": "Zeros", "config": {}}, "moving_variance_initializer": {"class_name": "Ones", "config": {}}, "beta_regularizer": null, "gamma_regularizer": null, "beta_constraint": null, "gamma_constraint": null}, "name": "batch_normalization_20", "inbound_nodes": [[["conv2d_20", 0, 0, {}]]]}, {"class_name": "TensorFlowOpLayer", "config": {"name": "Softplus_20", "trainable": true, "dtype": "float32", "node_def": {"name": "Softplus_20", "op": "Softplus", "input": ["batch_normalization_20/Identity"], "attr": {"T": {"type": "DT_FLOAT"}}}, "constants": {}}, "name": "tf_op_layer_Softplus_20", "inbound_nodes": [[["batch_normalization_20", 0, 0, {}]]]}, {"class_name": "TensorFlowOpLayer", "config": {"name": "Tanh_20", "trainable": true, "dtype": "float32", "node_def": {"name": "Tanh_20", "op": "Tanh", "input": ["Softplus_20"], "attr": {"T": {"type": "DT_FLOAT"}}}, "constants": {}}, "name": "tf_op_layer_Tanh_20", "inbound_nodes": [[["tf_op_layer_Softplus_20", 0, 0, {}]]]}, {"class_name": "TensorFlowOpLayer", "config": {"name": "Mul_20", "trainable": true, "dtype": "float32", "node_def": {"name": "Mul_20", "op": "Mul", "input": ["batch_normalization_20/Identity", "Tanh_20"], "attr": {"T": {"type": "DT_FLOAT"}}}, "constants": {}}, "name": "tf_op_layer_Mul_20", "inbound_nodes": [[["batch_normalization_20", 0, 0, {}], ["tf_op_layer_Tanh_20", 0, 0, {}]]]}, {"class_name": "Conv2D", "config": {"name": "conv2d_21", "trainable": true, "dtype": "float32", "filters": 128, "kernel_size": [3, 3], "strides": [1, 1], "padding": "same", "data_format": "channels_last", "dilation_rate": [1, 1], "activation": "linear", "use_bias": false, "kernel_initializer": {"class_name": "GlorotUniform", "config": {"seed": null}}, "bias_initializer": {"class_name": "Zeros", "config": {}}, "kernel_regularizer": null, "bias_regularizer": null, "activity_regularizer": null, "kernel_constraint": null, "bias_constraint": null}, "name": "conv2d_21", "inbound_nodes": [[["tf_op_layer_Mul_20", 0, 0, {}]]]}, {"class_name": "BatchNormalization", "config": {"name": "batch_normalization_21", "trainable": true, "dtype": "float32", "axis": [3], "momentum": 0.99, "epsilon": 0.001, "center": true, "scale": true, "beta_initializer": {"class_name": "Zeros", "config": {}}, "gamma_initializer": {"class_name": "Ones", "config": {}}, "moving_mean_initializer": {"class_name": "Zeros", "config": {}}, "moving_variance_initializer": {"class_name": "Ones", "config": {}}, "beta_regularizer": null, "gamma_regularizer": null, "beta_constraint": null, "gamma_constraint": null}, "name": "batch_normalization_21", "inbound_nodes": [[["conv2d_21", 0, 0, {}]]]}, {"class_name": "TensorFlowOpLayer", "config": {"name": "Softplus_21", "trainable": true, "dtype": "float32", "node_def": {"name": "Softplus_21", "op": "Softplus", "input": ["batch_normalization_21/Identity"], "attr": {"T": {"type": "DT_FLOAT"}}}, "constants": {}}, "name": "tf_op_layer_Softplus_21", "inbound_nodes": [[["batch_normalization_21", 0, 0, {}]]]}, {"class_name": "TensorFlowOpLayer", "config": {"name": "Tanh_21", "trainable": true, "dtype": "float32", "node_def": {"name": "Tanh_21", "op": "Tanh", "input": ["Softplus_21"], "attr": {"T": {"type": "DT_FLOAT"}}}, "constants": {}}, "name": "tf_op_layer_Tanh_21", "inbound_nodes": [[["tf_op_layer_Softplus_21", 0, 0, {}]]]}, {"class_name": "TensorFlowOpLayer", "config": {"name": "Mul_21", "trainable": true, "dtype": "float32", "node_def": {"name": "Mul_21", "op": "Mul", "input": ["batch_normalization_21/Identity", "Tanh_21"], "attr": {"T": {"type": "DT_FLOAT"}}}, "constants": {}}, "name": "tf_op_layer_Mul_21", "inbound_nodes": [[["batch_normalization_21", 0, 0, {}], ["tf_op_layer_Tanh_21", 0, 0, {}]]]}, {"class_name": "TensorFlowOpLayer", "config": {"name": "AddV2_3", "trainable": true, "dtype": "float32", "node_def": {"name": "AddV2_3", "op": "AddV2", "input": ["Mul_21", "Mul_19"], "attr": {"T": {"type": "DT_FLOAT"}}}, "constants": {}}, "name": "tf_op_layer_AddV2_3", "inbound_nodes": [[["tf_op_layer_Mul_21", 0, 0, {}], ["tf_op_layer_Mul_19", 0, 0, {}]]]}, {"class_name": "Conv2D", "config": {"name": "conv2d_22", "trainable": true, "dtype": "float32", "filters": 128, "kernel_size": [1, 1], "strides": [1, 1], "padding": "same", "data_format": "channels_last", "dilation_rate": [1, 1], "activation": "linear", "use_bias": false, "kernel_initializer": {"class_name": "GlorotUniform", "config": {"seed": null}}, "bias_initializer": {"class_name": "Zeros", "config": {}}, "kernel_regularizer": null, "bias_regularizer": null, "activity_regularizer": null, "kernel_constraint": null, "bias_constraint": null}, "name": "conv2d_22", "inbound_nodes": [[["tf_op_layer_AddV2_3", 0, 0, {}]]]}, {"class_name": "BatchNormalization", "config": {"name": "batch_normalization_22", "trainable": true, "dtype": "float32", "axis": [3], "momentum": 0.99, "epsilon": 0.001, "center": true, "scale": true, "beta_initializer": {"class_name": "Zeros", "config": {}}, "gamma_initializer": {"class_name": "Ones", "config": {}}, "moving_mean_initializer": {"class_name": "Zeros", "config": {}}, "moving_variance_initializer": {"class_name": "Ones", "config": {}}, "beta_regularizer": null, "gamma_regularizer": null, "beta_constraint": null, "gamma_constraint": null}, "name": "batch_normalization_22", "inbound_nodes": [[["conv2d_22", 0, 0, {}]]]}, {"class_name": "TensorFlowOpLayer", "config": {"name": "Softplus_22", "trainable": true, "dtype": "float32", "node_def": {"name": "Softplus_22", "op": "Softplus", "input": ["batch_normalization_22/Identity"], "attr": {"T": {"type": "DT_FLOAT"}}}, "constants": {}}, "name": "tf_op_layer_Softplus_22", "inbound_nodes": [[["batch_normalization_22", 0, 0, {}]]]}, {"class_name": "TensorFlowOpLayer", "config": {"name": "Tanh_22", "trainable": true, "dtype": "float32", "node_def": {"name": "Tanh_22", "op": "Tanh", "input": ["Softplus_22"], "attr": {"T": {"type": "DT_FLOAT"}}}, "constants": {}}, "name": "tf_op_layer_Tanh_22", "inbound_nodes": [[["tf_op_layer_Softplus_22", 0, 0, {}]]]}, {"class_name": "TensorFlowOpLayer", "config": {"name": "Mul_22", "trainable": true, "dtype": "float32", "node_def": {"name": "Mul_22", "op": "Mul", "input": ["batch_normalization_22/Identity", "Tanh_22"], "attr": {"T": {"type": "DT_FLOAT"}}}, "constants": {}}, "name": "tf_op_layer_Mul_22", "inbound_nodes": [[["batch_normalization_22", 0, 0, {}], ["tf_op_layer_Tanh_22", 0, 0, {}]]]}, {"class_name": "Conv2D", "config": {"name": "conv2d_23", "trainable": true, "dtype": "float32", "filters": 128, "kernel_size": [3, 3], "strides": [1, 1], "padding": "same", "data_format": "channels_last", "dilation_rate": [1, 1], "activation": "linear", "use_bias": false, "kernel_initializer": {"class_name": "GlorotUniform", "config": {"seed": null}}, "bias_initializer": {"class_name": "Zeros", "config": {}}, "kernel_regularizer": null, "bias_regularizer": null, "activity_regularizer": null, "kernel_constraint": null, "bias_constraint": null}, "name": "conv2d_23", "inbound_nodes": [[["tf_op_layer_Mul_22", 0, 0, {}]]]}, {"class_name": "BatchNormalization", "config": {"name": "batch_normalization_23", "trainable": true, "dtype": "float32", "axis": [3], "momentum": 0.99, "epsilon": 0.001, "center": true, "scale": true, "beta_initializer": {"class_name": "Zeros", "config": {}}, "gamma_initializer": {"class_name": "Ones", "config": {}}, "moving_mean_initializer": {"class_name": "Zeros", "config": {}}, "moving_variance_initializer": {"class_name": "Ones", "config": {}}, "beta_regularizer": null, "gamma_regularizer": null, "beta_constraint": null, "gamma_constraint": null}, "name": "batch_normalization_23", "inbound_nodes": [[["conv2d_23", 0, 0, {}]]]}, {"class_name": "TensorFlowOpLayer", "config": {"name": "Softplus_23", "trainable": true, "dtype": "float32", "node_def": {"name": "Softplus_23", "op": "Softplus", "input": ["batch_normalization_23/Identity"], "attr": {"T": {"type": "DT_FLOAT"}}}, "constants": {}}, "name": "tf_op_layer_Softplus_23", "inbound_nodes": [[["batch_normalization_23", 0, 0, {}]]]}, {"class_name": "TensorFlowOpLayer", "config": {"name": "Tanh_23", "trainable": true, "dtype": "float32", "node_def": {"name": "Tanh_23", "op": "Tanh", "input": ["Softplus_23"], "attr": {"T": {"type": "DT_FLOAT"}}}, "constants": {}}, "name": "tf_op_layer_Tanh_23", "inbound_nodes": [[["tf_op_layer_Softplus_23", 0, 0, {}]]]}, {"class_name": "TensorFlowOpLayer", "config": {"name": "Mul_23", "trainable": true, "dtype": "float32", "node_def": {"name": "Mul_23", "op": "Mul", "input": ["batch_normalization_23/Identity", "Tanh_23"], "attr": {"T": {"type": "DT_FLOAT"}}}, "constants": {}}, "name": "tf_op_layer_Mul_23", "inbound_nodes": [[["batch_normalization_23", 0, 0, {}], ["tf_op_layer_Tanh_23", 0, 0, {}]]]}, {"class_name": "TensorFlowOpLayer", "config": {"name": "AddV2_4", "trainable": true, "dtype": "float32", "node_def": {"name": "AddV2_4", "op": "AddV2", "input": ["Mul_23", "AddV2_3"], "attr": {"T": {"type": "DT_FLOAT"}}}, "constants": {}}, "name": "tf_op_layer_AddV2_4", "inbound_nodes": [[["tf_op_layer_Mul_23", 0, 0, {}], ["tf_op_layer_AddV2_3", 0, 0, {}]]]}, {"class_name": "Conv2D", "config": {"name": "conv2d_24", "trainable": true, "dtype": "float32", "filters": 128, "kernel_size": [1, 1], "strides": [1, 1], "padding": "same", "data_format": "channels_last", "dilation_rate": [1, 1], "activation": "linear", "use_bias": false, "kernel_initializer": {"class_name": "GlorotUniform", "config": {"seed": null}}, "bias_initializer": {"class_name": "Zeros", "config": {}}, "kernel_regularizer": null, "bias_regularizer": null, "activity_regularizer": null, "kernel_constraint": null, "bias_constraint": null}, "name": "conv2d_24", "inbound_nodes": [[["tf_op_layer_AddV2_4", 0, 0, {}]]]}, {"class_name": "BatchNormalization", "config": {"name": "batch_normalization_24", "trainable": true, "dtype": "float32", "axis": [3], "momentum": 0.99, "epsilon": 0.001, "center": true, "scale": true, "beta_initializer": {"class_name": "Zeros", "config": {}}, "gamma_initializer": {"class_name": "Ones", "config": {}}, "moving_mean_initializer": {"class_name": "Zeros", "config": {}}, "moving_variance_initializer": {"class_name": "Ones", "config": {}}, "beta_regularizer": null, "gamma_regularizer": null, "beta_constraint": null, "gamma_constraint": null}, "name": "batch_normalization_24", "inbound_nodes": [[["conv2d_24", 0, 0, {}]]]}, {"class_name": "TensorFlowOpLayer", "config": {"name": "Softplus_24", "trainable": true, "dtype": "float32", "node_def": {"name": "Softplus_24", "op": "Softplus", "input": ["batch_normalization_24/Identity"], "attr": {"T": {"type": "DT_FLOAT"}}}, "constants": {}}, "name": "tf_op_layer_Softplus_24", "inbound_nodes": [[["batch_normalization_24", 0, 0, {}]]]}, {"class_name": "TensorFlowOpLayer", "config": {"name": "Tanh_24", "trainable": true, "dtype": "float32", "node_def": {"name": "Tanh_24", "op": "Tanh", "input": ["Softplus_24"], "attr": {"T": {"type": "DT_FLOAT"}}}, "constants": {}}, "name": "tf_op_layer_Tanh_24", "inbound_nodes": [[["tf_op_layer_Softplus_24", 0, 0, {}]]]}, {"class_name": "TensorFlowOpLayer", "config": {"name": "Mul_24", "trainable": true, "dtype": "float32", "node_def": {"name": "Mul_24", "op": "Mul", "input": ["batch_normalization_24/Identity", "Tanh_24"], "attr": {"T": {"type": "DT_FLOAT"}}}, "constants": {}}, "name": "tf_op_layer_Mul_24", "inbound_nodes": [[["batch_normalization_24", 0, 0, {}], ["tf_op_layer_Tanh_24", 0, 0, {}]]]}, {"class_name": "Conv2D", "config": {"name": "conv2d_25", "trainable": true, "dtype": "float32", "filters": 128, "kernel_size": [3, 3], "strides": [1, 1], "padding": "same", "data_format": "channels_last", "dilation_rate": [1, 1], "activation": "linear", "use_bias": false, "kernel_initializer": {"class_name": "GlorotUniform", "config": {"seed": null}}, "bias_initializer": {"class_name": "Zeros", "config": {}}, "kernel_regularizer": null, "bias_regularizer": null, "activity_regularizer": null, "kernel_constraint": null, "bias_constraint": null}, "name": "conv2d_25", "inbound_nodes": [[["tf_op_layer_Mul_24", 0, 0, {}]]]}, {"class_name": "BatchNormalization", "config": {"name": "batch_normalization_25", "trainable": true, "dtype": "float32", "axis": [3], "momentum": 0.99, "epsilon": 0.001, "center": true, "scale": true, "beta_initializer": {"class_name": "Zeros", "config": {}}, "gamma_initializer": {"class_name": "Ones", "config": {}}, "moving_mean_initializer": {"class_name": "Zeros", "config": {}}, "moving_variance_initializer": {"class_name": "Ones", "config": {}}, "beta_regularizer": null, "gamma_regularizer": null, "beta_constraint": null, "gamma_constraint": null}, "name": "batch_normalization_25", "inbound_nodes": [[["conv2d_25", 0, 0, {}]]]}, {"class_name": "TensorFlowOpLayer", "config": {"name": "Softplus_25", "trainable": true, "dtype": "float32", "node_def": {"name": "Softplus_25", "op": "Softplus", "input": ["batch_normalization_25/Identity"], "attr": {"T": {"type": "DT_FLOAT"}}}, "constants": {}}, "name": "tf_op_layer_Softplus_25", "inbound_nodes": [[["batch_normalization_25", 0, 0, {}]]]}, {"class_name": "TensorFlowOpLayer", "config": {"name": "Tanh_25", "trainable": true, "dtype": "float32", "node_def": {"name": "Tanh_25", "op": "Tanh", "input": ["Softplus_25"], "attr": {"T": {"type": "DT_FLOAT"}}}, "constants": {}}, "name": "tf_op_layer_Tanh_25", "inbound_nodes": [[["tf_op_layer_Softplus_25", 0, 0, {}]]]}, {"class_name": "TensorFlowOpLayer", "config": {"name": "Mul_25", "trainable": true, "dtype": "float32", "node_def": {"name": "Mul_25", "op": "Mul", "input": ["batch_normalization_25/Identity", "Tanh_25"], "attr": {"T": {"type": "DT_FLOAT"}}}, "constants": {}}, "name": "tf_op_layer_Mul_25", "inbound_nodes": [[["batch_normalization_25", 0, 0, {}], ["tf_op_layer_Tanh_25", 0, 0, {}]]]}, {"class_name": "TensorFlowOpLayer", "config": {"name": "AddV2_5", "trainable": true, "dtype": "float32", "node_def": {"name": "AddV2_5", "op": "AddV2", "input": ["Mul_25", "AddV2_4"], "attr": {"T": {"type": "DT_FLOAT"}}}, "constants": {}}, "name": "tf_op_layer_AddV2_5", "inbound_nodes": [[["tf_op_layer_Mul_25", 0, 0, {}], ["tf_op_layer_AddV2_4", 0, 0, {}]]]}, {"class_name": "Conv2D", "config": {"name": "conv2d_26", "trainable": true, "dtype": "float32", "filters": 128, "kernel_size": [1, 1], "strides": [1, 1], "padding": "same", "data_format": "channels_last", "dilation_rate": [1, 1], "activation": "linear", "use_bias": false, "kernel_initializer": {"class_name": "GlorotUniform", "config": {"seed": null}}, "bias_initializer": {"class_name": "Zeros", "config": {}}, "kernel_regularizer": null, "bias_regularizer": null, "activity_regularizer": null, "kernel_constraint": null, "bias_constraint": null}, "name": "conv2d_26", "inbound_nodes": [[["tf_op_layer_AddV2_5", 0, 0, {}]]]}, {"class_name": "BatchNormalization", "config": {"name": "batch_normalization_26", "trainable": true, "dtype": "float32", "axis": [3], "momentum": 0.99, "epsilon": 0.001, "center": true, "scale": true, "beta_initializer": {"class_name": "Zeros", "config": {}}, "gamma_initializer": {"class_name": "Ones", "config": {}}, "moving_mean_initializer": {"class_name": "Zeros", "config": {}}, "moving_variance_initializer": {"class_name": "Ones", "config": {}}, "beta_regularizer": null, "gamma_regularizer": null, "beta_constraint": null, "gamma_constraint": null}, "name": "batch_normalization_26", "inbound_nodes": [[["conv2d_26", 0, 0, {}]]]}, {"class_name": "TensorFlowOpLayer", "config": {"name": "Softplus_26", "trainable": true, "dtype": "float32", "node_def": {"name": "Softplus_26", "op": "Softplus", "input": ["batch_normalization_26/Identity"], "attr": {"T": {"type": "DT_FLOAT"}}}, "constants": {}}, "name": "tf_op_layer_Softplus_26", "inbound_nodes": [[["batch_normalization_26", 0, 0, {}]]]}, {"class_name": "TensorFlowOpLayer", "config": {"name": "Tanh_26", "trainable": true, "dtype": "float32", "node_def": {"name": "Tanh_26", "op": "Tanh", "input": ["Softplus_26"], "attr": {"T": {"type": "DT_FLOAT"}}}, "constants": {}}, "name": "tf_op_layer_Tanh_26", "inbound_nodes": [[["tf_op_layer_Softplus_26", 0, 0, {}]]]}, {"class_name": "TensorFlowOpLayer", "config": {"name": "Mul_26", "trainable": true, "dtype": "float32", "node_def": {"name": "Mul_26", "op": "Mul", "input": ["batch_normalization_26/Identity", "Tanh_26"], "attr": {"T": {"type": "DT_FLOAT"}}}, "constants": {}}, "name": "tf_op_layer_Mul_26", "inbound_nodes": [[["batch_normalization_26", 0, 0, {}], ["tf_op_layer_Tanh_26", 0, 0, {}]]]}, {"class_name": "Conv2D", "config": {"name": "conv2d_27", "trainable": true, "dtype": "float32", "filters": 128, "kernel_size": [3, 3], "strides": [1, 1], "padding": "same", "data_format": "channels_last", "dilation_rate": [1, 1], "activation": "linear", "use_bias": false, "kernel_initializer": {"class_name": "GlorotUniform", "config": {"seed": null}}, "bias_initializer": {"class_name": "Zeros", "config": {}}, "kernel_regularizer": null, "bias_regularizer": null, "activity_regularizer": null, "kernel_constraint": null, "bias_constraint": null}, "name": "conv2d_27", "inbound_nodes": [[["tf_op_layer_Mul_26", 0, 0, {}]]]}, {"class_name": "BatchNormalization", "config": {"name": "batch_normalization_27", "trainable": true, "dtype": "float32", "axis": [3], "momentum": 0.99, "epsilon": 0.001, "center": true, "scale": true, "beta_initializer": {"class_name": "Zeros", "config": {}}, "gamma_initializer": {"class_name": "Ones", "config": {}}, "moving_mean_initializer": {"class_name": "Zeros", "config": {}}, "moving_variance_initializer": {"class_name": "Ones", "config": {}}, "beta_regularizer": null, "gamma_regularizer": null, "beta_constraint": null, "gamma_constraint": null}, "name": "batch_normalization_27", "inbound_nodes": [[["conv2d_27", 0, 0, {}]]]}, {"class_name": "TensorFlowOpLayer", "config": {"name": "Softplus_27", "trainable": true, "dtype": "float32", "node_def": {"name": "Softplus_27", "op": "Softplus", "input": ["batch_normalization_27/Identity"], "attr": {"T": {"type": "DT_FLOAT"}}}, "constants": {}}, "name": "tf_op_layer_Softplus_27", "inbound_nodes": [[["batch_normalization_27", 0, 0, {}]]]}, {"class_name": "TensorFlowOpLayer", "config": {"name": "Tanh_27", "trainable": true, "dtype": "float32", "node_def": {"name": "Tanh_27", "op": "Tanh", "input": ["Softplus_27"], "attr": {"T": {"type": "DT_FLOAT"}}}, "constants": {}}, "name": "tf_op_layer_Tanh_27", "inbound_nodes": [[["tf_op_layer_Softplus_27", 0, 0, {}]]]}, {"class_name": "TensorFlowOpLayer", "config": {"name": "Mul_27", "trainable": true, "dtype": "float32", "node_def": {"name": "Mul_27", "op": "Mul", "input": ["batch_normalization_27/Identity", "Tanh_27"], "attr": {"T": {"type": "DT_FLOAT"}}}, "constants": {}}, "name": "tf_op_layer_Mul_27", "inbound_nodes": [[["batch_normalization_27", 0, 0, {}], ["tf_op_layer_Tanh_27", 0, 0, {}]]]}, {"class_name": "TensorFlowOpLayer", "config": {"name": "AddV2_6", "trainable": true, "dtype": "float32", "node_def": {"name": "AddV2_6", "op": "AddV2", "input": ["Mul_27", "AddV2_5"], "attr": {"T": {"type": "DT_FLOAT"}}}, "constants": {}}, "name": "tf_op_layer_AddV2_6", "inbound_nodes": [[["tf_op_layer_Mul_27", 0, 0, {}], ["tf_op_layer_AddV2_5", 0, 0, {}]]]}, {"class_name": "Conv2D", "config": {"name": "conv2d_28", "trainable": true, "dtype": "float32", "filters": 128, "kernel_size": [1, 1], "strides": [1, 1], "padding": "same", "data_format": "channels_last", "dilation_rate": [1, 1], "activation": "linear", "use_bias": false, "kernel_initializer": {"class_name": "GlorotUniform", "config": {"seed": null}}, "bias_initializer": {"class_name": "Zeros", "config": {}}, "kernel_regularizer": null, "bias_regularizer": null, "activity_regularizer": null, "kernel_constraint": null, "bias_constraint": null}, "name": "conv2d_28", "inbound_nodes": [[["tf_op_layer_AddV2_6", 0, 0, {}]]]}, {"class_name": "BatchNormalization", "config": {"name": "batch_normalization_28", "trainable": true, "dtype": "float32", "axis": [3], "momentum": 0.99, "epsilon": 0.001, "center": true, "scale": true, "beta_initializer": {"class_name": "Zeros", "config": {}}, "gamma_initializer": {"class_name": "Ones", "config": {}}, "moving_mean_initializer": {"class_name": "Zeros", "config": {}}, "moving_variance_initializer": {"class_name": "Ones", "config": {}}, "beta_regularizer": null, "gamma_regularizer": null, "beta_constraint": null, "gamma_constraint": null}, "name": "batch_normalization_28", "inbound_nodes": [[["conv2d_28", 0, 0, {}]]]}, {"class_name": "TensorFlowOpLayer", "config": {"name": "Softplus_28", "trainable": true, "dtype": "float32", "node_def": {"name": "Softplus_28", "op": "Softplus", "input": ["batch_normalization_28/Identity"], "attr": {"T": {"type": "DT_FLOAT"}}}, "constants": {}}, "name": "tf_op_layer_Softplus_28", "inbound_nodes": [[["batch_normalization_28", 0, 0, {}]]]}, {"class_name": "TensorFlowOpLayer", "config": {"name": "Tanh_28", "trainable": true, "dtype": "float32", "node_def": {"name": "Tanh_28", "op": "Tanh", "input": ["Softplus_28"], "attr": {"T": {"type": "DT_FLOAT"}}}, "constants": {}}, "name": "tf_op_layer_Tanh_28", "inbound_nodes": [[["tf_op_layer_Softplus_28", 0, 0, {}]]]}, {"class_name": "TensorFlowOpLayer", "config": {"name": "Mul_28", "trainable": true, "dtype": "float32", "node_def": {"name": "Mul_28", "op": "Mul", "input": ["batch_normalization_28/Identity", "Tanh_28"], "attr": {"T": {"type": "DT_FLOAT"}}}, "constants": {}}, "name": "tf_op_layer_Mul_28", "inbound_nodes": [[["batch_normalization_28", 0, 0, {}], ["tf_op_layer_Tanh_28", 0, 0, {}]]]}, {"class_name": "Conv2D", "config": {"name": "conv2d_29", "trainable": true, "dtype": "float32", "filters": 128, "kernel_size": [3, 3], "strides": [1, 1], "padding": "same", "data_format": "channels_last", "dilation_rate": [1, 1], "activation": "linear", "use_bias": false, "kernel_initializer": {"class_name": "GlorotUniform", "config": {"seed": null}}, "bias_initializer": {"class_name": "Zeros", "config": {}}, "kernel_regularizer": null, "bias_regularizer": null, "activity_regularizer": null, "kernel_constraint": null, "bias_constraint": null}, "name": "conv2d_29", "inbound_nodes": [[["tf_op_layer_Mul_28", 0, 0, {}]]]}, {"class_name": "BatchNormalization", "config": {"name": "batch_normalization_29", "trainable": true, "dtype": "float32", "axis": [3], "momentum": 0.99, "epsilon": 0.001, "center": true, "scale": true, "beta_initializer": {"class_name": "Zeros", "config": {}}, "gamma_initializer": {"class_name": "Ones", "config": {}}, "moving_mean_initializer": {"class_name": "Zeros", "config": {}}, "moving_variance_initializer": {"class_name": "Ones", "config": {}}, "beta_regularizer": null, "gamma_regularizer": null, "beta_constraint": null, "gamma_constraint": null}, "name": "batch_normalization_29", "inbound_nodes": [[["conv2d_29", 0, 0, {}]]]}, {"class_name": "TensorFlowOpLayer", "config": {"name": "Softplus_29", "trainable": true, "dtype": "float32", "node_def": {"name": "Softplus_29", "op": "Softplus", "input": ["batch_normalization_29/Identity"], "attr": {"T": {"type": "DT_FLOAT"}}}, "constants": {}}, "name": "tf_op_layer_Softplus_29", "inbound_nodes": [[["batch_normalization_29", 0, 0, {}]]]}, {"class_name": "TensorFlowOpLayer", "config": {"name": "Tanh_29", "trainable": true, "dtype": "float32", "node_def": {"name": "Tanh_29", "op": "Tanh", "input": ["Softplus_29"], "attr": {"T": {"type": "DT_FLOAT"}}}, "constants": {}}, "name": "tf_op_layer_Tanh_29", "inbound_nodes": [[["tf_op_layer_Softplus_29", 0, 0, {}]]]}, {"class_name": "TensorFlowOpLayer", "config": {"name": "Mul_29", "trainable": true, "dtype": "float32", "node_def": {"name": "Mul_29", "op": "Mul", "input": ["batch_normalization_29/Identity", "Tanh_29"], "attr": {"T": {"type": "DT_FLOAT"}}}, "constants": {}}, "name": "tf_op_layer_Mul_29", "inbound_nodes": [[["batch_normalization_29", 0, 0, {}], ["tf_op_layer_Tanh_29", 0, 0, {}]]]}, {"class_name": "TensorFlowOpLayer", "config": {"name": "AddV2_7", "trainable": true, "dtype": "float32", "node_def": {"name": "AddV2_7", "op": "AddV2", "input": ["Mul_29", "AddV2_6"], "attr": {"T": {"type": "DT_FLOAT"}}}, "constants": {}}, "name": "tf_op_layer_AddV2_7", "inbound_nodes": [[["tf_op_layer_Mul_29", 0, 0, {}], ["tf_op_layer_AddV2_6", 0, 0, {}]]]}, {"class_name": "Conv2D", "config": {"name": "conv2d_30", "trainable": true, "dtype": "float32", "filters": 128, "kernel_size": [1, 1], "strides": [1, 1], "padding": "same", "data_format": "channels_last", "dilation_rate": [1, 1], "activation": "linear", "use_bias": false, "kernel_initializer": {"class_name": "GlorotUniform", "config": {"seed": null}}, "bias_initializer": {"class_name": "Zeros", "config": {}}, "kernel_regularizer": null, "bias_regularizer": null, "activity_regularizer": null, "kernel_constraint": null, "bias_constraint": null}, "name": "conv2d_30", "inbound_nodes": [[["tf_op_layer_AddV2_7", 0, 0, {}]]]}, {"class_name": "BatchNormalization", "config": {"name": "batch_normalization_30", "trainable": true, "dtype": "float32", "axis": [3], "momentum": 0.99, "epsilon": 0.001, "center": true, "scale": true, "beta_initializer": {"class_name": "Zeros", "config": {}}, "gamma_initializer": {"class_name": "Ones", "config": {}}, "moving_mean_initializer": {"class_name": "Zeros", "config": {}}, "moving_variance_initializer": {"class_name": "Ones", "config": {}}, "beta_regularizer": null, "gamma_regularizer": null, "beta_constraint": null, "gamma_constraint": null}, "name": "batch_normalization_30", "inbound_nodes": [[["conv2d_30", 0, 0, {}]]]}, {"class_name": "TensorFlowOpLayer", "config": {"name": "Softplus_30", "trainable": true, "dtype": "float32", "node_def": {"name": "Softplus_30", "op": "Softplus", "input": ["batch_normalization_30/Identity"], "attr": {"T": {"type": "DT_FLOAT"}}}, "constants": {}}, "name": "tf_op_layer_Softplus_30", "inbound_nodes": [[["batch_normalization_30", 0, 0, {}]]]}, {"class_name": "TensorFlowOpLayer", "config": {"name": "Tanh_30", "trainable": true, "dtype": "float32", "node_def": {"name": "Tanh_30", "op": "Tanh", "input": ["Softplus_30"], "attr": {"T": {"type": "DT_FLOAT"}}}, "constants": {}}, "name": "tf_op_layer_Tanh_30", "inbound_nodes": [[["tf_op_layer_Softplus_30", 0, 0, {}]]]}, {"class_name": "TensorFlowOpLayer", "config": {"name": "Mul_30", "trainable": true, "dtype": "float32", "node_def": {"name": "Mul_30", "op": "Mul", "input": ["batch_normalization_30/Identity", "Tanh_30"], "attr": {"T": {"type": "DT_FLOAT"}}}, "constants": {}}, "name": "tf_op_layer_Mul_30", "inbound_nodes": [[["batch_normalization_30", 0, 0, {}], ["tf_op_layer_Tanh_30", 0, 0, {}]]]}, {"class_name": "Conv2D", "config": {"name": "conv2d_31", "trainable": true, "dtype": "float32", "filters": 128, "kernel_size": [3, 3], "strides": [1, 1], "padding": "same", "data_format": "channels_last", "dilation_rate": [1, 1], "activation": "linear", "use_bias": false, "kernel_initializer": {"class_name": "GlorotUniform", "config": {"seed": null}}, "bias_initializer": {"class_name": "Zeros", "config": {}}, "kernel_regularizer": null, "bias_regularizer": null, "activity_regularizer": null, "kernel_constraint": null, "bias_constraint": null}, "name": "conv2d_31", "inbound_nodes": [[["tf_op_layer_Mul_30", 0, 0, {}]]]}, {"class_name": "BatchNormalization", "config": {"name": "batch_normalization_31", "trainable": true, "dtype": "float32", "axis": [3], "momentum": 0.99, "epsilon": 0.001, "center": true, "scale": true, "beta_initializer": {"class_name": "Zeros", "config": {}}, "gamma_initializer": {"class_name": "Ones", "config": {}}, "moving_mean_initializer": {"class_name": "Zeros", "config": {}}, "moving_variance_initializer": {"class_name": "Ones", "config": {}}, "beta_regularizer": null, "gamma_regularizer": null, "beta_constraint": null, "gamma_constraint": null}, "name": "batch_normalization_31", "inbound_nodes": [[["conv2d_31", 0, 0, {}]]]}, {"class_name": "TensorFlowOpLayer", "config": {"name": "Softplus_31", "trainable": true, "dtype": "float32", "node_def": {"name": "Softplus_31", "op": "Softplus", "input": ["batch_normalization_31/Identity"], "attr": {"T": {"type": "DT_FLOAT"}}}, "constants": {}}, "name": "tf_op_layer_Softplus_31", "inbound_nodes": [[["batch_normalization_31", 0, 0, {}]]]}, {"class_name": "TensorFlowOpLayer", "config": {"name": "Tanh_31", "trainable": true, "dtype": "float32", "node_def": {"name": "Tanh_31", "op": "Tanh", "input": ["Softplus_31"], "attr": {"T": {"type": "DT_FLOAT"}}}, "constants": {}}, "name": "tf_op_layer_Tanh_31", "inbound_nodes": [[["tf_op_layer_Softplus_31", 0, 0, {}]]]}, {"class_name": "TensorFlowOpLayer", "config": {"name": "Mul_31", "trainable": true, "dtype": "float32", "node_def": {"name": "Mul_31", "op": "Mul", "input": ["batch_normalization_31/Identity", "Tanh_31"], "attr": {"T": {"type": "DT_FLOAT"}}}, "constants": {}}, "name": "tf_op_layer_Mul_31", "inbound_nodes": [[["batch_normalization_31", 0, 0, {}], ["tf_op_layer_Tanh_31", 0, 0, {}]]]}, {"class_name": "TensorFlowOpLayer", "config": {"name": "AddV2_8", "trainable": true, "dtype": "float32", "node_def": {"name": "AddV2_8", "op": "AddV2", "input": ["Mul_31", "AddV2_7"], "attr": {"T": {"type": "DT_FLOAT"}}}, "constants": {}}, "name": "tf_op_layer_AddV2_8", "inbound_nodes": [[["tf_op_layer_Mul_31", 0, 0, {}], ["tf_op_layer_AddV2_7", 0, 0, {}]]]}, {"class_name": "Conv2D", "config": {"name": "conv2d_32", "trainable": true, "dtype": "float32", "filters": 128, "kernel_size": [1, 1], "strides": [1, 1], "padding": "same", "data_format": "channels_last", "dilation_rate": [1, 1], "activation": "linear", "use_bias": false, "kernel_initializer": {"class_name": "GlorotUniform", "config": {"seed": null}}, "bias_initializer": {"class_name": "Zeros", "config": {}}, "kernel_regularizer": null, "bias_regularizer": null, "activity_regularizer": null, "kernel_constraint": null, "bias_constraint": null}, "name": "conv2d_32", "inbound_nodes": [[["tf_op_layer_AddV2_8", 0, 0, {}]]]}, {"class_name": "BatchNormalization", "config": {"name": "batch_normalization_32", "trainable": true, "dtype": "float32", "axis": [3], "momentum": 0.99, "epsilon": 0.001, "center": true, "scale": true, "beta_initializer": {"class_name": "Zeros", "config": {}}, "gamma_initializer": {"class_name": "Ones", "config": {}}, "moving_mean_initializer": {"class_name": "Zeros", "config": {}}, "moving_variance_initializer": {"class_name": "Ones", "config": {}}, "beta_regularizer": null, "gamma_regularizer": null, "beta_constraint": null, "gamma_constraint": null}, "name": "batch_normalization_32", "inbound_nodes": [[["conv2d_32", 0, 0, {}]]]}, {"class_name": "TensorFlowOpLayer", "config": {"name": "Softplus_32", "trainable": true, "dtype": "float32", "node_def": {"name": "Softplus_32", "op": "Softplus", "input": ["batch_normalization_32/Identity"], "attr": {"T": {"type": "DT_FLOAT"}}}, "constants": {}}, "name": "tf_op_layer_Softplus_32", "inbound_nodes": [[["batch_normalization_32", 0, 0, {}]]]}, {"class_name": "TensorFlowOpLayer", "config": {"name": "Tanh_32", "trainable": true, "dtype": "float32", "node_def": {"name": "Tanh_32", "op": "Tanh", "input": ["Softplus_32"], "attr": {"T": {"type": "DT_FLOAT"}}}, "constants": {}}, "name": "tf_op_layer_Tanh_32", "inbound_nodes": [[["tf_op_layer_Softplus_32", 0, 0, {}]]]}, {"class_name": "TensorFlowOpLayer", "config": {"name": "Mul_32", "trainable": true, "dtype": "float32", "node_def": {"name": "Mul_32", "op": "Mul", "input": ["batch_normalization_32/Identity", "Tanh_32"], "attr": {"T": {"type": "DT_FLOAT"}}}, "constants": {}}, "name": "tf_op_layer_Mul_32", "inbound_nodes": [[["batch_normalization_32", 0, 0, {}], ["tf_op_layer_Tanh_32", 0, 0, {}]]]}, {"class_name": "Conv2D", "config": {"name": "conv2d_33", "trainable": true, "dtype": "float32", "filters": 128, "kernel_size": [3, 3], "strides": [1, 1], "padding": "same", "data_format": "channels_last", "dilation_rate": [1, 1], "activation": "linear", "use_bias": false, "kernel_initializer": {"class_name": "GlorotUniform", "config": {"seed": null}}, "bias_initializer": {"class_name": "Zeros", "config": {}}, "kernel_regularizer": null, "bias_regularizer": null, "activity_regularizer": null, "kernel_constraint": null, "bias_constraint": null}, "name": "conv2d_33", "inbound_nodes": [[["tf_op_layer_Mul_32", 0, 0, {}]]]}, {"class_name": "BatchNormalization", "config": {"name": "batch_normalization_33", "trainable": true, "dtype": "float32", "axis": [3], "momentum": 0.99, "epsilon": 0.001, "center": true, "scale": true, "beta_initializer": {"class_name": "Zeros", "config": {}}, "gamma_initializer": {"class_name": "Ones", "config": {}}, "moving_mean_initializer": {"class_name": "Zeros", "config": {}}, "moving_variance_initializer": {"class_name": "Ones", "config": {}}, "beta_regularizer": null, "gamma_regularizer": null, "beta_constraint": null, "gamma_constraint": null}, "name": "batch_normalization_33", "inbound_nodes": [[["conv2d_33", 0, 0, {}]]]}, {"class_name": "TensorFlowOpLayer", "config": {"name": "Softplus_33", "trainable": true, "dtype": "float32", "node_def": {"name": "Softplus_33", "op": "Softplus", "input": ["batch_normalization_33/Identity"], "attr": {"T": {"type": "DT_FLOAT"}}}, "constants": {}}, "name": "tf_op_layer_Softplus_33", "inbound_nodes": [[["batch_normalization_33", 0, 0, {}]]]}, {"class_name": "TensorFlowOpLayer", "config": {"name": "Tanh_33", "trainable": true, "dtype": "float32", "node_def": {"name": "Tanh_33", "op": "Tanh", "input": ["Softplus_33"], "attr": {"T": {"type": "DT_FLOAT"}}}, "constants": {}}, "name": "tf_op_layer_Tanh_33", "inbound_nodes": [[["tf_op_layer_Softplus_33", 0, 0, {}]]]}, {"class_name": "TensorFlowOpLayer", "config": {"name": "Mul_33", "trainable": true, "dtype": "float32", "node_def": {"name": "Mul_33", "op": "Mul", "input": ["batch_normalization_33/Identity", "Tanh_33"], "attr": {"T": {"type": "DT_FLOAT"}}}, "constants": {}}, "name": "tf_op_layer_Mul_33", "inbound_nodes": [[["batch_normalization_33", 0, 0, {}], ["tf_op_layer_Tanh_33", 0, 0, {}]]]}, {"class_name": "TensorFlowOpLayer", "config": {"name": "AddV2_9", "trainable": true, "dtype": "float32", "node_def": {"name": "AddV2_9", "op": "AddV2", "input": ["Mul_33", "AddV2_8"], "attr": {"T": {"type": "DT_FLOAT"}}}, "constants": {}}, "name": "tf_op_layer_AddV2_9", "inbound_nodes": [[["tf_op_layer_Mul_33", 0, 0, {}], ["tf_op_layer_AddV2_8", 0, 0, {}]]]}, {"class_name": "Conv2D", "config": {"name": "conv2d_34", "trainable": true, "dtype": "float32", "filters": 128, "kernel_size": [1, 1], "strides": [1, 1], "padding": "same", "data_format": "channels_last", "dilation_rate": [1, 1], "activation": "linear", "use_bias": false, "kernel_initializer": {"class_name": "GlorotUniform", "config": {"seed": null}}, "bias_initializer": {"class_name": "Zeros", "config": {}}, "kernel_regularizer": null, "bias_regularizer": null, "activity_regularizer": null, "kernel_constraint": null, "bias_constraint": null}, "name": "conv2d_34", "inbound_nodes": [[["tf_op_layer_AddV2_9", 0, 0, {}]]]}, {"class_name": "BatchNormalization", "config": {"name": "batch_normalization_34", "trainable": true, "dtype": "float32", "axis": [3], "momentum": 0.99, "epsilon": 0.001, "center": true, "scale": true, "beta_initializer": {"class_name": "Zeros", "config": {}}, "gamma_initializer": {"class_name": "Ones", "config": {}}, "moving_mean_initializer": {"class_name": "Zeros", "config": {}}, "moving_variance_initializer": {"class_name": "Ones", "config": {}}, "beta_regularizer": null, "gamma_regularizer": null, "beta_constraint": null, "gamma_constraint": null}, "name": "batch_normalization_34", "inbound_nodes": [[["conv2d_34", 0, 0, {}]]]}, {"class_name": "TensorFlowOpLayer", "config": {"name": "Softplus_34", "trainable": true, "dtype": "float32", "node_def": {"name": "Softplus_34", "op": "Softplus", "input": ["batch_normalization_34/Identity"], "attr": {"T": {"type": "DT_FLOAT"}}}, "constants": {}}, "name": "tf_op_layer_Softplus_34", "inbound_nodes": [[["batch_normalization_34", 0, 0, {}]]]}, {"class_name": "TensorFlowOpLayer", "config": {"name": "Tanh_34", "trainable": true, "dtype": "float32", "node_def": {"name": "Tanh_34", "op": "Tanh", "input": ["Softplus_34"], "attr": {"T": {"type": "DT_FLOAT"}}}, "constants": {}}, "name": "tf_op_layer_Tanh_34", "inbound_nodes": [[["tf_op_layer_Softplus_34", 0, 0, {}]]]}, {"class_name": "TensorFlowOpLayer", "config": {"name": "Mul_34", "trainable": true, "dtype": "float32", "node_def": {"name": "Mul_34", "op": "Mul", "input": ["batch_normalization_34/Identity", "Tanh_34"], "attr": {"T": {"type": "DT_FLOAT"}}}, "constants": {}}, "name": "tf_op_layer_Mul_34", "inbound_nodes": [[["batch_normalization_34", 0, 0, {}], ["tf_op_layer_Tanh_34", 0, 0, {}]]]}, {"class_name": "Conv2D", "config": {"name": "conv2d_35", "trainable": true, "dtype": "float32", "filters": 128, "kernel_size": [3, 3], "strides": [1, 1], "padding": "same", "data_format": "channels_last", "dilation_rate": [1, 1], "activation": "linear", "use_bias": false, "kernel_initializer": {"class_name": "GlorotUniform", "config": {"seed": null}}, "bias_initializer": {"class_name": "Zeros", "config": {}}, "kernel_regularizer": null, "bias_regularizer": null, "activity_regularizer": null, "kernel_constraint": null, "bias_constraint": null}, "name": "conv2d_35", "inbound_nodes": [[["tf_op_layer_Mul_34", 0, 0, {}]]]}, {"class_name": "BatchNormalization", "config": {"name": "batch_normalization_35", "trainable": true, "dtype": "float32", "axis": [3], "momentum": 0.99, "epsilon": 0.001, "center": true, "scale": true, "beta_initializer": {"class_name": "Zeros", "config": {}}, "gamma_initializer": {"class_name": "Ones", "config": {}}, "moving_mean_initializer": {"class_name": "Zeros", "config": {}}, "moving_variance_initializer": {"class_name": "Ones", "config": {}}, "beta_regularizer": null, "gamma_regularizer": null, "beta_constraint": null, "gamma_constraint": null}, "name": "batch_normalization_35", "inbound_nodes": [[["conv2d_35", 0, 0, {}]]]}, {"class_name": "TensorFlowOpLayer", "config": {"name": "Softplus_35", "trainable": true, "dtype": "float32", "node_def": {"name": "Softplus_35", "op": "Softplus", "input": ["batch_normalization_35/Identity"], "attr": {"T": {"type": "DT_FLOAT"}}}, "constants": {}}, "name": "tf_op_layer_Softplus_35", "inbound_nodes": [[["batch_normalization_35", 0, 0, {}]]]}, {"class_name": "TensorFlowOpLayer", "config": {"name": "Tanh_35", "trainable": true, "dtype": "float32", "node_def": {"name": "Tanh_35", "op": "Tanh", "input": ["Softplus_35"], "attr": {"T": {"type": "DT_FLOAT"}}}, "constants": {}}, "name": "tf_op_layer_Tanh_35", "inbound_nodes": [[["tf_op_layer_Softplus_35", 0, 0, {}]]]}, {"class_name": "TensorFlowOpLayer", "config": {"name": "Mul_35", "trainable": true, "dtype": "float32", "node_def": {"name": "Mul_35", "op": "Mul", "input": ["batch_normalization_35/Identity", "Tanh_35"], "attr": {"T": {"type": "DT_FLOAT"}}}, "constants": {}}, "name": "tf_op_layer_Mul_35", "inbound_nodes": [[["batch_normalization_35", 0, 0, {}], ["tf_op_layer_Tanh_35", 0, 0, {}]]]}, {"class_name": "TensorFlowOpLayer", "config": {"name": "AddV2_10", "trainable": true, "dtype": "float32", "node_def": {"name": "AddV2_10", "op": "AddV2", "input": ["Mul_35", "AddV2_9"], "attr": {"T": {"type": "DT_FLOAT"}}}, "constants": {}}, "name": "tf_op_layer_AddV2_10", "inbound_nodes": [[["tf_op_layer_Mul_35", 0, 0, {}], ["tf_op_layer_AddV2_9", 0, 0, {}]]]}, {"class_name": "Conv2D", "config": {"name": "conv2d_36", "trainable": true, "dtype": "float32", "filters": 128, "kernel_size": [1, 1], "strides": [1, 1], "padding": "same", "data_format": "channels_last", "dilation_rate": [1, 1], "activation": "linear", "use_bias": false, "kernel_initializer": {"class_name": "GlorotUniform", "config": {"seed": null}}, "bias_initializer": {"class_name": "Zeros", "config": {}}, "kernel_regularizer": null, "bias_regularizer": null, "activity_regularizer": null, "kernel_constraint": null, "bias_constraint": null}, "name": "conv2d_36", "inbound_nodes": [[["tf_op_layer_AddV2_10", 0, 0, {}]]]}, {"class_name": "Conv2D", "config": {"name": "conv2d_18", "trainable": true, "dtype": "float32", "filters": 128, "kernel_size": [1, 1], "strides": [1, 1], "padding": "same", "data_format": "channels_last", "dilation_rate": [1, 1], "activation": "linear", "use_bias": false, "kernel_initializer": {"class_name": "GlorotUniform", "config": {"seed": null}}, "bias_initializer": {"class_name": "Zeros", "config": {}}, "kernel_regularizer": null, "bias_regularizer": null, "activity_regularizer": null, "kernel_constraint": null, "bias_constraint": null}, "name": "conv2d_18", "inbound_nodes": [[["tf_op_layer_Mul_17", 0, 0, {}]]]}, {"class_name": "BatchNormalization", "config": {"name": "batch_normalization_36", "trainable": true, "dtype": "float32", "axis": [3], "momentum": 0.99, "epsilon": 0.001, "center": true, "scale": true, "beta_initializer": {"class_name": "Zeros", "config": {}}, "gamma_initializer": {"class_name": "Ones", "config": {}}, "moving_mean_initializer": {"class_name": "Zeros", "config": {}}, "moving_variance_initializer": {"class_name": "Ones", "config": {}}, "beta_regularizer": null, "gamma_regularizer": null, "beta_constraint": null, "gamma_constraint": null}, "name": "batch_normalization_36", "inbound_nodes": [[["conv2d_36", 0, 0, {}]]]}, {"class_name": "BatchNormalization", "config": {"name": "batch_normalization_18", "trainable": true, "dtype": "float32", "axis": [3], "momentum": 0.99, "epsilon": 0.001, "center": true, "scale": true, "beta_initializer": {"class_name": "Zeros", "config": {}}, "gamma_initializer": {"class_name": "Ones", "config": {}}, "moving_mean_initializer": {"class_name": "Zeros", "config": {}}, "moving_variance_initializer": {"class_name": "Ones", "config": {}}, "beta_regularizer": null, "gamma_regularizer": null, "beta_constraint": null, "gamma_constraint": null}, "name": "batch_normalization_18", "inbound_nodes": [[["conv2d_18", 0, 0, {}]]]}, {"class_name": "TensorFlowOpLayer", "config": {"name": "Softplus_36", "trainable": true, "dtype": "float32", "node_def": {"name": "Softplus_36", "op": "Softplus", "input": ["batch_normalization_36/Identity"], "attr": {"T": {"type": "DT_FLOAT"}}}, "constants": {}}, "name": "tf_op_layer_Softplus_36", "inbound_nodes": [[["batch_normalization_36", 0, 0, {}]]]}, {"class_name": "TensorFlowOpLayer", "config": {"name": "Softplus_18", "trainable": true, "dtype": "float32", "node_def": {"name": "Softplus_18", "op": "Softplus", "input": ["batch_normalization_18/Identity"], "attr": {"T": {"type": "DT_FLOAT"}}}, "constants": {}}, "name": "tf_op_layer_Softplus_18", "inbound_nodes": [[["batch_normalization_18", 0, 0, {}]]]}, {"class_name": "TensorFlowOpLayer", "config": {"name": "Tanh_36", "trainable": true, "dtype": "float32", "node_def": {"name": "Tanh_36", "op": "Tanh", "input": ["Softplus_36"], "attr": {"T": {"type": "DT_FLOAT"}}}, "constants": {}}, "name": "tf_op_layer_Tanh_36", "inbound_nodes": [[["tf_op_layer_Softplus_36", 0, 0, {}]]]}, {"class_name": "TensorFlowOpLayer", "config": {"name": "Tanh_18", "trainable": true, "dtype": "float32", "node_def": {"name": "Tanh_18", "op": "Tanh", "input": ["Softplus_18"], "attr": {"T": {"type": "DT_FLOAT"}}}, "constants": {}}, "name": "tf_op_layer_Tanh_18", "inbound_nodes": [[["tf_op_layer_Softplus_18", 0, 0, {}]]]}, {"class_name": "TensorFlowOpLayer", "config": {"name": "Mul_36", "trainable": true, "dtype": "float32", "node_def": {"name": "Mul_36", "op": "Mul", "input": ["batch_normalization_36/Identity", "Tanh_36"], "attr": {"T": {"type": "DT_FLOAT"}}}, "constants": {}}, "name": "tf_op_layer_Mul_36", "inbound_nodes": [[["batch_normalization_36", 0, 0, {}], ["tf_op_layer_Tanh_36", 0, 0, {}]]]}, {"class_name": "TensorFlowOpLayer", "config": {"name": "Mul_18", "trainable": true, "dtype": "float32", "node_def": {"name": "Mul_18", "op": "Mul", "input": ["batch_normalization_18/Identity", "Tanh_18"], "attr": {"T": {"type": "DT_FLOAT"}}}, "constants": {}}, "name": "tf_op_layer_Mul_18", "inbound_nodes": [[["batch_normalization_18", 0, 0, {}], ["tf_op_layer_Tanh_18", 0, 0, {}]]]}, {"class_name": "Concatenate", "config": {"name": "concatenate_2", "trainable": true, "dtype": "float32", "axis": -1}, "name": "concatenate_2", "inbound_nodes": [[["tf_op_layer_Mul_36", 0, 0, {}], ["tf_op_layer_Mul_18", 0, 0, {}]]]}, {"class_name": "Conv2D", "config": {"name": "conv2d_37", "trainable": true, "dtype": "float32", "filters": 256, "kernel_size": [1, 1], "strides": [1, 1], "padding": "same", "data_format": "channels_last", "dilation_rate": [1, 1], "activation": "linear", "use_bias": false, "kernel_initializer": {"class_name": "GlorotUniform", "config": {"seed": null}}, "bias_initializer": {"class_name": "Zeros", "config": {}}, "kernel_regularizer": null, "bias_regularizer": null, "activity_regularizer": null, "kernel_constraint": null, "bias_constraint": null}, "name": "conv2d_37", "inbound_nodes": [[["concatenate_2", 0, 0, {}]]]}, {"class_name": "BatchNormalization", "config": {"name": "batch_normalization_37", "trainable": true, "dtype": "float32", "axis": [3], "momentum": 0.99, "epsilon": 0.001, "center": true, "scale": true, "beta_initializer": {"class_name": "Zeros", "config": {}}, "gamma_initializer": {"class_name": "Ones", "config": {}}, "moving_mean_initializer": {"class_name": "Zeros", "config": {}}, "moving_variance_initializer": {"class_name": "Ones", "config": {}}, "beta_regularizer": null, "gamma_regularizer": null, "beta_constraint": null, "gamma_constraint": null}, "name": "batch_normalization_37", "inbound_nodes": [[["conv2d_37", 0, 0, {}]]]}, {"class_name": "TensorFlowOpLayer", "config": {"name": "Softplus_37", "trainable": true, "dtype": "float32", "node_def": {"name": "Softplus_37", "op": "Softplus", "input": ["batch_normalization_37/Identity"], "attr": {"T": {"type": "DT_FLOAT"}}}, "constants": {}}, "name": "tf_op_layer_Softplus_37", "inbound_nodes": [[["batch_normalization_37", 0, 0, {}]]]}, {"class_name": "TensorFlowOpLayer", "config": {"name": "Tanh_37", "trainable": true, "dtype": "float32", "node_def": {"name": "Tanh_37", "op": "Tanh", "input": ["Softplus_37"], "attr": {"T": {"type": "DT_FLOAT"}}}, "constants": {}}, "name": "tf_op_layer_Tanh_37", "inbound_nodes": [[["tf_op_layer_Softplus_37", 0, 0, {}]]]}, {"class_name": "TensorFlowOpLayer", "config": {"name": "Mul_37", "trainable": true, "dtype": "float32", "node_def": {"name": "Mul_37", "op": "Mul", "input": ["batch_normalization_37/Identity", "Tanh_37"], "attr": {"T": {"type": "DT_FLOAT"}}}, "constants": {}}, "name": "tf_op_layer_Mul_37", "inbound_nodes": [[["batch_normalization_37", 0, 0, {}], ["tf_op_layer_Tanh_37", 0, 0, {}]]]}, {"class_name": "ZeroPadding2D", "config": {"name": "zero_padding2d_3", "trainable": true, "dtype": "float32", "padding": [[1, 0], [1, 0]], "data_format": "channels_last"}, "name": "zero_padding2d_3", "inbound_nodes": [[["tf_op_layer_Mul_37", 0, 0, {}]]]}, {"class_name": "Conv2D", "config": {"name": "conv2d_38", "trainable": true, "dtype": "float32", "filters": 512, "kernel_size": [3, 3], "strides": [2, 2], "padding": "valid", "data_format": "channels_last", "dilation_rate": [1, 1], "activation": "linear", "use_bias": false, "kernel_initializer": {"class_name": "GlorotUniform", "config": {"seed": null}}, "bias_initializer": {"class_name": "Zeros", "config": {}}, "kernel_regularizer": null, "bias_regularizer": null, "activity_regularizer": null, "kernel_constraint": null, "bias_constraint": null}, "name": "conv2d_38", "inbound_nodes": [[["zero_padding2d_3", 0, 0, {}]]]}, {"class_name": "BatchNormalization", "config": {"name": "batch_normalization_38", "trainable": true, "dtype": "float32", "axis": [3], "momentum": 0.99, "epsilon": 0.001, "center": true, "scale": true, "beta_initializer": {"class_name": "Zeros", "config": {}}, "gamma_initializer": {"class_name": "Ones", "config": {}}, "moving_mean_initializer": {"class_name": "Zeros", "config": {}}, "moving_variance_initializer": {"class_name": "Ones", "config": {}}, "beta_regularizer": null, "gamma_regularizer": null, "beta_constraint": null, "gamma_constraint": null}, "name": "batch_normalization_38", "inbound_nodes": [[["conv2d_38", 0, 0, {}]]]}, {"class_name": "TensorFlowOpLayer", "config": {"name": "Softplus_38", "trainable": true, "dtype": "float32", "node_def": {"name": "Softplus_38", "op": "Softplus", "input": ["batch_normalization_38/Identity"], "attr": {"T": {"type": "DT_FLOAT"}}}, "constants": {}}, "name": "tf_op_layer_Softplus_38", "inbound_nodes": [[["batch_normalization_38", 0, 0, {}]]]}, {"class_name": "TensorFlowOpLayer", "config": {"name": "Tanh_38", "trainable": true, "dtype": "float32", "node_def": {"name": "Tanh_38", "op": "Tanh", "input": ["Softplus_38"], "attr": {"T": {"type": "DT_FLOAT"}}}, "constants": {}}, "name": "tf_op_layer_Tanh_38", "inbound_nodes": [[["tf_op_layer_Softplus_38", 0, 0, {}]]]}, {"class_name": "TensorFlowOpLayer", "config": {"name": "Mul_38", "trainable": true, "dtype": "float32", "node_def": {"name": "Mul_38", "op": "Mul", "input": ["batch_normalization_38/Identity", "Tanh_38"], "attr": {"T": {"type": "DT_FLOAT"}}}, "constants": {}}, "name": "tf_op_layer_Mul_38", "inbound_nodes": [[["batch_normalization_38", 0, 0, {}], ["tf_op_layer_Tanh_38", 0, 0, {}]]]}, {"class_name": "Conv2D", "config": {"name": "conv2d_40", "trainable": true, "dtype": "float32", "filters": 256, "kernel_size": [1, 1], "strides": [1, 1], "padding": "same", "data_format": "channels_last", "dilation_rate": [1, 1], "activation": "linear", "use_bias": false, "kernel_initializer": {"class_name": "GlorotUniform", "config": {"seed": null}}, "bias_initializer": {"class_name": "Zeros", "config": {}}, "kernel_regularizer": null, "bias_regularizer": null, "activity_regularizer": null, "kernel_constraint": null, "bias_constraint": null}, "name": "conv2d_40", "inbound_nodes": [[["tf_op_layer_Mul_38", 0, 0, {}]]]}, {"class_name": "BatchNormalization", "config": {"name": "batch_normalization_40", "trainable": true, "dtype": "float32", "axis": [3], "momentum": 0.99, "epsilon": 0.001, "center": true, "scale": true, "beta_initializer": {"class_name": "Zeros", "config": {}}, "gamma_initializer": {"class_name": "Ones", "config": {}}, "moving_mean_initializer": {"class_name": "Zeros", "config": {}}, "moving_variance_initializer": {"class_name": "Ones", "config": {}}, "beta_regularizer": null, "gamma_regularizer": null, "beta_constraint": null, "gamma_constraint": null}, "name": "batch_normalization_40", "inbound_nodes": [[["conv2d_40", 0, 0, {}]]]}, {"class_name": "TensorFlowOpLayer", "config": {"name": "Softplus_40", "trainable": true, "dtype": "float32", "node_def": {"name": "Softplus_40", "op": "Softplus", "input": ["batch_normalization_40/Identity"], "attr": {"T": {"type": "DT_FLOAT"}}}, "constants": {}}, "name": "tf_op_layer_Softplus_40", "inbound_nodes": [[["batch_normalization_40", 0, 0, {}]]]}, {"class_name": "TensorFlowOpLayer", "config": {"name": "Tanh_40", "trainable": true, "dtype": "float32", "node_def": {"name": "Tanh_40", "op": "Tanh", "input": ["Softplus_40"], "attr": {"T": {"type": "DT_FLOAT"}}}, "constants": {}}, "name": "tf_op_layer_Tanh_40", "inbound_nodes": [[["tf_op_layer_Softplus_40", 0, 0, {}]]]}, {"class_name": "TensorFlowOpLayer", "config": {"name": "Mul_40", "trainable": true, "dtype": "float32", "node_def": {"name": "Mul_40", "op": "Mul", "input": ["batch_normalization_40/Identity", "Tanh_40"], "attr": {"T": {"type": "DT_FLOAT"}}}, "constants": {}}, "name": "tf_op_layer_Mul_40", "inbound_nodes": [[["batch_normalization_40", 0, 0, {}], ["tf_op_layer_Tanh_40", 0, 0, {}]]]}, {"class_name": "Conv2D", "config": {"name": "conv2d_41", "trainable": true, "dtype": "float32", "filters": 256, "kernel_size": [1, 1], "strides": [1, 1], "padding": "same", "data_format": "channels_last", "dilation_rate": [1, 1], "activation": "linear", "use_bias": false, "kernel_initializer": {"class_name": "GlorotUniform", "config": {"seed": null}}, "bias_initializer": {"class_name": "Zeros", "config": {}}, "kernel_regularizer": null, "bias_regularizer": null, "activity_regularizer": null, "kernel_constraint": null, "bias_constraint": null}, "name": "conv2d_41", "inbound_nodes": [[["tf_op_layer_Mul_40", 0, 0, {}]]]}, {"class_name": "BatchNormalization", "config": {"name": "batch_normalization_41", "trainable": true, "dtype": "float32", "axis": [3], "momentum": 0.99, "epsilon": 0.001, "center": true, "scale": true, "beta_initializer": {"class_name": "Zeros", "config": {}}, "gamma_initializer": {"class_name": "Ones", "config": {}}, "moving_mean_initializer": {"class_name": "Zeros", "config": {}}, "moving_variance_initializer": {"class_name": "Ones", "config": {}}, "beta_regularizer": null, "gamma_regularizer": null, "beta_constraint": null, "gamma_constraint": null}, "name": "batch_normalization_41", "inbound_nodes": [[["conv2d_41", 0, 0, {}]]]}, {"class_name": "TensorFlowOpLayer", "config": {"name": "Softplus_41", "trainable": true, "dtype": "float32", "node_def": {"name": "Softplus_41", "op": "Softplus", "input": ["batch_normalization_41/Identity"], "attr": {"T": {"type": "DT_FLOAT"}}}, "constants": {}}, "name": "tf_op_layer_Softplus_41", "inbound_nodes": [[["batch_normalization_41", 0, 0, {}]]]}, {"class_name": "TensorFlowOpLayer", "config": {"name": "Tanh_41", "trainable": true, "dtype": "float32", "node_def": {"name": "Tanh_41", "op": "Tanh", "input": ["Softplus_41"], "attr": {"T": {"type": "DT_FLOAT"}}}, "constants": {}}, "name": "tf_op_layer_Tanh_41", "inbound_nodes": [[["tf_op_layer_Softplus_41", 0, 0, {}]]]}, {"class_name": "TensorFlowOpLayer", "config": {"name": "Mul_41", "trainable": true, "dtype": "float32", "node_def": {"name": "Mul_41", "op": "Mul", "input": ["batch_normalization_41/Identity", "Tanh_41"], "attr": {"T": {"type": "DT_FLOAT"}}}, "constants": {}}, "name": "tf_op_layer_Mul_41", "inbound_nodes": [[["batch_normalization_41", 0, 0, {}], ["tf_op_layer_Tanh_41", 0, 0, {}]]]}, {"class_name": "Conv2D", "config": {"name": "conv2d_42", "trainable": true, "dtype": "float32", "filters": 256, "kernel_size": [3, 3], "strides": [1, 1], "padding": "same", "data_format": "channels_last", "dilation_rate": [1, 1], "activation": "linear", "use_bias": false, "kernel_initializer": {"class_name": "GlorotUniform", "config": {"seed": null}}, "bias_initializer": {"class_name": "Zeros", "config": {}}, "kernel_regularizer": null, "bias_regularizer": null, "activity_regularizer": null, "kernel_constraint": null, "bias_constraint": null}, "name": "conv2d_42", "inbound_nodes": [[["tf_op_layer_Mul_41", 0, 0, {}]]]}, {"class_name": "BatchNormalization", "config": {"name": "batch_normalization_42", "trainable": true, "dtype": "float32", "axis": [3], "momentum": 0.99, "epsilon": 0.001, "center": true, "scale": true, "beta_initializer": {"class_name": "Zeros", "config": {}}, "gamma_initializer": {"class_name": "Ones", "config": {}}, "moving_mean_initializer": {"class_name": "Zeros", "config": {}}, "moving_variance_initializer": {"class_name": "Ones", "config": {}}, "beta_regularizer": null, "gamma_regularizer": null, "beta_constraint": null, "gamma_constraint": null}, "name": "batch_normalization_42", "inbound_nodes": [[["conv2d_42", 0, 0, {}]]]}, {"class_name": "TensorFlowOpLayer", "config": {"name": "Softplus_42", "trainable": true, "dtype": "float32", "node_def": {"name": "Softplus_42", "op": "Softplus", "input": ["batch_normalization_42/Identity"], "attr": {"T": {"type": "DT_FLOAT"}}}, "constants": {}}, "name": "tf_op_layer_Softplus_42", "inbound_nodes": [[["batch_normalization_42", 0, 0, {}]]]}, {"class_name": "TensorFlowOpLayer", "config": {"name": "Tanh_42", "trainable": true, "dtype": "float32", "node_def": {"name": "Tanh_42", "op": "Tanh", "input": ["Softplus_42"], "attr": {"T": {"type": "DT_FLOAT"}}}, "constants": {}}, "name": "tf_op_layer_Tanh_42", "inbound_nodes": [[["tf_op_layer_Softplus_42", 0, 0, {}]]]}, {"class_name": "TensorFlowOpLayer", "config": {"name": "Mul_42", "trainable": true, "dtype": "float32", "node_def": {"name": "Mul_42", "op": "Mul", "input": ["batch_normalization_42/Identity", "Tanh_42"], "attr": {"T": {"type": "DT_FLOAT"}}}, "constants": {}}, "name": "tf_op_layer_Mul_42", "inbound_nodes": [[["batch_normalization_42", 0, 0, {}], ["tf_op_layer_Tanh_42", 0, 0, {}]]]}, {"class_name": "TensorFlowOpLayer", "config": {"name": "AddV2_11", "trainable": true, "dtype": "float32", "node_def": {"name": "AddV2_11", "op": "AddV2", "input": ["Mul_42", "Mul_40"], "attr": {"T": {"type": "DT_FLOAT"}}}, "constants": {}}, "name": "tf_op_layer_AddV2_11", "inbound_nodes": [[["tf_op_layer_Mul_42", 0, 0, {}], ["tf_op_layer_Mul_40", 0, 0, {}]]]}, {"class_name": "Conv2D", "config": {"name": "conv2d_43", "trainable": true, "dtype": "float32", "filters": 256, "kernel_size": [1, 1], "strides": [1, 1], "padding": "same", "data_format": "channels_last", "dilation_rate": [1, 1], "activation": "linear", "use_bias": false, "kernel_initializer": {"class_name": "GlorotUniform", "config": {"seed": null}}, "bias_initializer": {"class_name": "Zeros", "config": {}}, "kernel_regularizer": null, "bias_regularizer": null, "activity_regularizer": null, "kernel_constraint": null, "bias_constraint": null}, "name": "conv2d_43", "inbound_nodes": [[["tf_op_layer_AddV2_11", 0, 0, {}]]]}, {"class_name": "BatchNormalization", "config": {"name": "batch_normalization_43", "trainable": true, "dtype": "float32", "axis": [3], "momentum": 0.99, "epsilon": 0.001, "center": true, "scale": true, "beta_initializer": {"class_name": "Zeros", "config": {}}, "gamma_initializer": {"class_name": "Ones", "config": {}}, "moving_mean_initializer": {"class_name": "Zeros", "config": {}}, "moving_variance_initializer": {"class_name": "Ones", "config": {}}, "beta_regularizer": null, "gamma_regularizer": null, "beta_constraint": null, "gamma_constraint": null}, "name": "batch_normalization_43", "inbound_nodes": [[["conv2d_43", 0, 0, {}]]]}, {"class_name": "TensorFlowOpLayer", "config": {"name": "Softplus_43", "trainable": true, "dtype": "float32", "node_def": {"name": "Softplus_43", "op": "Softplus", "input": ["batch_normalization_43/Identity"], "attr": {"T": {"type": "DT_FLOAT"}}}, "constants": {}}, "name": "tf_op_layer_Softplus_43", "inbound_nodes": [[["batch_normalization_43", 0, 0, {}]]]}, {"class_name": "TensorFlowOpLayer", "config": {"name": "Tanh_43", "trainable": true, "dtype": "float32", "node_def": {"name": "Tanh_43", "op": "Tanh", "input": ["Softplus_43"], "attr": {"T": {"type": "DT_FLOAT"}}}, "constants": {}}, "name": "tf_op_layer_Tanh_43", "inbound_nodes": [[["tf_op_layer_Softplus_43", 0, 0, {}]]]}, {"class_name": "TensorFlowOpLayer", "config": {"name": "Mul_43", "trainable": true, "dtype": "float32", "node_def": {"name": "Mul_43", "op": "Mul", "input": ["batch_normalization_43/Identity", "Tanh_43"], "attr": {"T": {"type": "DT_FLOAT"}}}, "constants": {}}, "name": "tf_op_layer_Mul_43", "inbound_nodes": [[["batch_normalization_43", 0, 0, {}], ["tf_op_layer_Tanh_43", 0, 0, {}]]]}, {"class_name": "Conv2D", "config": {"name": "conv2d_44", "trainable": true, "dtype": "float32", "filters": 256, "kernel_size": [3, 3], "strides": [1, 1], "padding": "same", "data_format": "channels_last", "dilation_rate": [1, 1], "activation": "linear", "use_bias": false, "kernel_initializer": {"class_name": "GlorotUniform", "config": {"seed": null}}, "bias_initializer": {"class_name": "Zeros", "config": {}}, "kernel_regularizer": null, "bias_regularizer": null, "activity_regularizer": null, "kernel_constraint": null, "bias_constraint": null}, "name": "conv2d_44", "inbound_nodes": [[["tf_op_layer_Mul_43", 0, 0, {}]]]}, {"class_name": "BatchNormalization", "config": {"name": "batch_normalization_44", "trainable": true, "dtype": "float32", "axis": [3], "momentum": 0.99, "epsilon": 0.001, "center": true, "scale": true, "beta_initializer": {"class_name": "Zeros", "config": {}}, "gamma_initializer": {"class_name": "Ones", "config": {}}, "moving_mean_initializer": {"class_name": "Zeros", "config": {}}, "moving_variance_initializer": {"class_name": "Ones", "config": {}}, "beta_regularizer": null, "gamma_regularizer": null, "beta_constraint": null, "gamma_constraint": null}, "name": "batch_normalization_44", "inbound_nodes": [[["conv2d_44", 0, 0, {}]]]}, {"class_name": "TensorFlowOpLayer", "config": {"name": "Softplus_44", "trainable": true, "dtype": "float32", "node_def": {"name": "Softplus_44", "op": "Softplus", "input": ["batch_normalization_44/Identity"], "attr": {"T": {"type": "DT_FLOAT"}}}, "constants": {}}, "name": "tf_op_layer_Softplus_44", "inbound_nodes": [[["batch_normalization_44", 0, 0, {}]]]}, {"class_name": "TensorFlowOpLayer", "config": {"name": "Tanh_44", "trainable": true, "dtype": "float32", "node_def": {"name": "Tanh_44", "op": "Tanh", "input": ["Softplus_44"], "attr": {"T": {"type": "DT_FLOAT"}}}, "constants": {}}, "name": "tf_op_layer_Tanh_44", "inbound_nodes": [[["tf_op_layer_Softplus_44", 0, 0, {}]]]}, {"class_name": "TensorFlowOpLayer", "config": {"name": "Mul_44", "trainable": true, "dtype": "float32", "node_def": {"name": "Mul_44", "op": "Mul", "input": ["batch_normalization_44/Identity", "Tanh_44"], "attr": {"T": {"type": "DT_FLOAT"}}}, "constants": {}}, "name": "tf_op_layer_Mul_44", "inbound_nodes": [[["batch_normalization_44", 0, 0, {}], ["tf_op_layer_Tanh_44", 0, 0, {}]]]}, {"class_name": "TensorFlowOpLayer", "config": {"name": "AddV2_12", "trainable": true, "dtype": "float32", "node_def": {"name": "AddV2_12", "op": "AddV2", "input": ["Mul_44", "AddV2_11"], "attr": {"T": {"type": "DT_FLOAT"}}}, "constants": {}}, "name": "tf_op_layer_AddV2_12", "inbound_nodes": [[["tf_op_layer_Mul_44", 0, 0, {}], ["tf_op_layer_AddV2_11", 0, 0, {}]]]}, {"class_name": "Conv2D", "config": {"name": "conv2d_45", "trainable": true, "dtype": "float32", "filters": 256, "kernel_size": [1, 1], "strides": [1, 1], "padding": "same", "data_format": "channels_last", "dilation_rate": [1, 1], "activation": "linear", "use_bias": false, "kernel_initializer": {"class_name": "GlorotUniform", "config": {"seed": null}}, "bias_initializer": {"class_name": "Zeros", "config": {}}, "kernel_regularizer": null, "bias_regularizer": null, "activity_regularizer": null, "kernel_constraint": null, "bias_constraint": null}, "name": "conv2d_45", "inbound_nodes": [[["tf_op_layer_AddV2_12", 0, 0, {}]]]}, {"class_name": "BatchNormalization", "config": {"name": "batch_normalization_45", "trainable": true, "dtype": "float32", "axis": [3], "momentum": 0.99, "epsilon": 0.001, "center": true, "scale": true, "beta_initializer": {"class_name": "Zeros", "config": {}}, "gamma_initializer": {"class_name": "Ones", "config": {}}, "moving_mean_initializer": {"class_name": "Zeros", "config": {}}, "moving_variance_initializer": {"class_name": "Ones", "config": {}}, "beta_regularizer": null, "gamma_regularizer": null, "beta_constraint": null, "gamma_constraint": null}, "name": "batch_normalization_45", "inbound_nodes": [[["conv2d_45", 0, 0, {}]]]}, {"class_name": "TensorFlowOpLayer", "config": {"name": "Softplus_45", "trainable": true, "dtype": "float32", "node_def": {"name": "Softplus_45", "op": "Softplus", "input": ["batch_normalization_45/Identity"], "attr": {"T": {"type": "DT_FLOAT"}}}, "constants": {}}, "name": "tf_op_layer_Softplus_45", "inbound_nodes": [[["batch_normalization_45", 0, 0, {}]]]}, {"class_name": "TensorFlowOpLayer", "config": {"name": "Tanh_45", "trainable": true, "dtype": "float32", "node_def": {"name": "Tanh_45", "op": "Tanh", "input": ["Softplus_45"], "attr": {"T": {"type": "DT_FLOAT"}}}, "constants": {}}, "name": "tf_op_layer_Tanh_45", "inbound_nodes": [[["tf_op_layer_Softplus_45", 0, 0, {}]]]}, {"class_name": "TensorFlowOpLayer", "config": {"name": "Mul_45", "trainable": true, "dtype": "float32", "node_def": {"name": "Mul_45", "op": "Mul", "input": ["batch_normalization_45/Identity", "Tanh_45"], "attr": {"T": {"type": "DT_FLOAT"}}}, "constants": {}}, "name": "tf_op_layer_Mul_45", "inbound_nodes": [[["batch_normalization_45", 0, 0, {}], ["tf_op_layer_Tanh_45", 0, 0, {}]]]}, {"class_name": "Conv2D", "config": {"name": "conv2d_46", "trainable": true, "dtype": "float32", "filters": 256, "kernel_size": [3, 3], "strides": [1, 1], "padding": "same", "data_format": "channels_last", "dilation_rate": [1, 1], "activation": "linear", "use_bias": false, "kernel_initializer": {"class_name": "GlorotUniform", "config": {"seed": null}}, "bias_initializer": {"class_name": "Zeros", "config": {}}, "kernel_regularizer": null, "bias_regularizer": null, "activity_regularizer": null, "kernel_constraint": null, "bias_constraint": null}, "name": "conv2d_46", "inbound_nodes": [[["tf_op_layer_Mul_45", 0, 0, {}]]]}, {"class_name": "BatchNormalization", "config": {"name": "batch_normalization_46", "trainable": true, "dtype": "float32", "axis": [3], "momentum": 0.99, "epsilon": 0.001, "center": true, "scale": true, "beta_initializer": {"class_name": "Zeros", "config": {}}, "gamma_initializer": {"class_name": "Ones", "config": {}}, "moving_mean_initializer": {"class_name": "Zeros", "config": {}}, "moving_variance_initializer": {"class_name": "Ones", "config": {}}, "beta_regularizer": null, "gamma_regularizer": null, "beta_constraint": null, "gamma_constraint": null}, "name": "batch_normalization_46", "inbound_nodes": [[["conv2d_46", 0, 0, {}]]]}, {"class_name": "TensorFlowOpLayer", "config": {"name": "Softplus_46", "trainable": true, "dtype": "float32", "node_def": {"name": "Softplus_46", "op": "Softplus", "input": ["batch_normalization_46/Identity"], "attr": {"T": {"type": "DT_FLOAT"}}}, "constants": {}}, "name": "tf_op_layer_Softplus_46", "inbound_nodes": [[["batch_normalization_46", 0, 0, {}]]]}, {"class_name": "TensorFlowOpLayer", "config": {"name": "Tanh_46", "trainable": true, "dtype": "float32", "node_def": {"name": "Tanh_46", "op": "Tanh", "input": ["Softplus_46"], "attr": {"T": {"type": "DT_FLOAT"}}}, "constants": {}}, "name": "tf_op_layer_Tanh_46", "inbound_nodes": [[["tf_op_layer_Softplus_46", 0, 0, {}]]]}, {"class_name": "TensorFlowOpLayer", "config": {"name": "Mul_46", "trainable": true, "dtype": "float32", "node_def": {"name": "Mul_46", "op": "Mul", "input": ["batch_normalization_46/Identity", "Tanh_46"], "attr": {"T": {"type": "DT_FLOAT"}}}, "constants": {}}, "name": "tf_op_layer_Mul_46", "inbound_nodes": [[["batch_normalization_46", 0, 0, {}], ["tf_op_layer_Tanh_46", 0, 0, {}]]]}, {"class_name": "TensorFlowOpLayer", "config": {"name": "AddV2_13", "trainable": true, "dtype": "float32", "node_def": {"name": "AddV2_13", "op": "AddV2", "input": ["Mul_46", "AddV2_12"], "attr": {"T": {"type": "DT_FLOAT"}}}, "constants": {}}, "name": "tf_op_layer_AddV2_13", "inbound_nodes": [[["tf_op_layer_Mul_46", 0, 0, {}], ["tf_op_layer_AddV2_12", 0, 0, {}]]]}, {"class_name": "Conv2D", "config": {"name": "conv2d_47", "trainable": true, "dtype": "float32", "filters": 256, "kernel_size": [1, 1], "strides": [1, 1], "padding": "same", "data_format": "channels_last", "dilation_rate": [1, 1], "activation": "linear", "use_bias": false, "kernel_initializer": {"class_name": "GlorotUniform", "config": {"seed": null}}, "bias_initializer": {"class_name": "Zeros", "config": {}}, "kernel_regularizer": null, "bias_regularizer": null, "activity_regularizer": null, "kernel_constraint": null, "bias_constraint": null}, "name": "conv2d_47", "inbound_nodes": [[["tf_op_layer_AddV2_13", 0, 0, {}]]]}, {"class_name": "BatchNormalization", "config": {"name": "batch_normalization_47", "trainable": true, "dtype": "float32", "axis": [3], "momentum": 0.99, "epsilon": 0.001, "center": true, "scale": true, "beta_initializer": {"class_name": "Zeros", "config": {}}, "gamma_initializer": {"class_name": "Ones", "config": {}}, "moving_mean_initializer": {"class_name": "Zeros", "config": {}}, "moving_variance_initializer": {"class_name": "Ones", "config": {}}, "beta_regularizer": null, "gamma_regularizer": null, "beta_constraint": null, "gamma_constraint": null}, "name": "batch_normalization_47", "inbound_nodes": [[["conv2d_47", 0, 0, {}]]]}, {"class_name": "TensorFlowOpLayer", "config": {"name": "Softplus_47", "trainable": true, "dtype": "float32", "node_def": {"name": "Softplus_47", "op": "Softplus", "input": ["batch_normalization_47/Identity"], "attr": {"T": {"type": "DT_FLOAT"}}}, "constants": {}}, "name": "tf_op_layer_Softplus_47", "inbound_nodes": [[["batch_normalization_47", 0, 0, {}]]]}, {"class_name": "TensorFlowOpLayer", "config": {"name": "Tanh_47", "trainable": true, "dtype": "float32", "node_def": {"name": "Tanh_47", "op": "Tanh", "input": ["Softplus_47"], "attr": {"T": {"type": "DT_FLOAT"}}}, "constants": {}}, "name": "tf_op_layer_Tanh_47", "inbound_nodes": [[["tf_op_layer_Softplus_47", 0, 0, {}]]]}, {"class_name": "TensorFlowOpLayer", "config": {"name": "Mul_47", "trainable": true, "dtype": "float32", "node_def": {"name": "Mul_47", "op": "Mul", "input": ["batch_normalization_47/Identity", "Tanh_47"], "attr": {"T": {"type": "DT_FLOAT"}}}, "constants": {}}, "name": "tf_op_layer_Mul_47", "inbound_nodes": [[["batch_normalization_47", 0, 0, {}], ["tf_op_layer_Tanh_47", 0, 0, {}]]]}, {"class_name": "Conv2D", "config": {"name": "conv2d_48", "trainable": true, "dtype": "float32", "filters": 256, "kernel_size": [3, 3], "strides": [1, 1], "padding": "same", "data_format": "channels_last", "dilation_rate": [1, 1], "activation": "linear", "use_bias": false, "kernel_initializer": {"class_name": "GlorotUniform", "config": {"seed": null}}, "bias_initializer": {"class_name": "Zeros", "config": {}}, "kernel_regularizer": null, "bias_regularizer": null, "activity_regularizer": null, "kernel_constraint": null, "bias_constraint": null}, "name": "conv2d_48", "inbound_nodes": [[["tf_op_layer_Mul_47", 0, 0, {}]]]}, {"class_name": "BatchNormalization", "config": {"name": "batch_normalization_48", "trainable": true, "dtype": "float32", "axis": [3], "momentum": 0.99, "epsilon": 0.001, "center": true, "scale": true, "beta_initializer": {"class_name": "Zeros", "config": {}}, "gamma_initializer": {"class_name": "Ones", "config": {}}, "moving_mean_initializer": {"class_name": "Zeros", "config": {}}, "moving_variance_initializer": {"class_name": "Ones", "config": {}}, "beta_regularizer": null, "gamma_regularizer": null, "beta_constraint": null, "gamma_constraint": null}, "name": "batch_normalization_48", "inbound_nodes": [[["conv2d_48", 0, 0, {}]]]}, {"class_name": "TensorFlowOpLayer", "config": {"name": "Softplus_48", "trainable": true, "dtype": "float32", "node_def": {"name": "Softplus_48", "op": "Softplus", "input": ["batch_normalization_48/Identity"], "attr": {"T": {"type": "DT_FLOAT"}}}, "constants": {}}, "name": "tf_op_layer_Softplus_48", "inbound_nodes": [[["batch_normalization_48", 0, 0, {}]]]}, {"class_name": "TensorFlowOpLayer", "config": {"name": "Tanh_48", "trainable": true, "dtype": "float32", "node_def": {"name": "Tanh_48", "op": "Tanh", "input": ["Softplus_48"], "attr": {"T": {"type": "DT_FLOAT"}}}, "constants": {}}, "name": "tf_op_layer_Tanh_48", "inbound_nodes": [[["tf_op_layer_Softplus_48", 0, 0, {}]]]}, {"class_name": "TensorFlowOpLayer", "config": {"name": "Mul_48", "trainable": true, "dtype": "float32", "node_def": {"name": "Mul_48", "op": "Mul", "input": ["batch_normalization_48/Identity", "Tanh_48"], "attr": {"T": {"type": "DT_FLOAT"}}}, "constants": {}}, "name": "tf_op_layer_Mul_48", "inbound_nodes": [[["batch_normalization_48", 0, 0, {}], ["tf_op_layer_Tanh_48", 0, 0, {}]]]}, {"class_name": "TensorFlowOpLayer", "config": {"name": "AddV2_14", "trainable": true, "dtype": "float32", "node_def": {"name": "AddV2_14", "op": "AddV2", "input": ["Mul_48", "AddV2_13"], "attr": {"T": {"type": "DT_FLOAT"}}}, "constants": {}}, "name": "tf_op_layer_AddV2_14", "inbound_nodes": [[["tf_op_layer_Mul_48", 0, 0, {}], ["tf_op_layer_AddV2_13", 0, 0, {}]]]}, {"class_name": "Conv2D", "config": {"name": "conv2d_49", "trainable": true, "dtype": "float32", "filters": 256, "kernel_size": [1, 1], "strides": [1, 1], "padding": "same", "data_format": "channels_last", "dilation_rate": [1, 1], "activation": "linear", "use_bias": false, "kernel_initializer": {"class_name": "GlorotUniform", "config": {"seed": null}}, "bias_initializer": {"class_name": "Zeros", "config": {}}, "kernel_regularizer": null, "bias_regularizer": null, "activity_regularizer": null, "kernel_constraint": null, "bias_constraint": null}, "name": "conv2d_49", "inbound_nodes": [[["tf_op_layer_AddV2_14", 0, 0, {}]]]}, {"class_name": "BatchNormalization", "config": {"name": "batch_normalization_49", "trainable": true, "dtype": "float32", "axis": [3], "momentum": 0.99, "epsilon": 0.001, "center": true, "scale": true, "beta_initializer": {"class_name": "Zeros", "config": {}}, "gamma_initializer": {"class_name": "Ones", "config": {}}, "moving_mean_initializer": {"class_name": "Zeros", "config": {}}, "moving_variance_initializer": {"class_name": "Ones", "config": {}}, "beta_regularizer": null, "gamma_regularizer": null, "beta_constraint": null, "gamma_constraint": null}, "name": "batch_normalization_49", "inbound_nodes": [[["conv2d_49", 0, 0, {}]]]}, {"class_name": "TensorFlowOpLayer", "config": {"name": "Softplus_49", "trainable": true, "dtype": "float32", "node_def": {"name": "Softplus_49", "op": "Softplus", "input": ["batch_normalization_49/Identity"], "attr": {"T": {"type": "DT_FLOAT"}}}, "constants": {}}, "name": "tf_op_layer_Softplus_49", "inbound_nodes": [[["batch_normalization_49", 0, 0, {}]]]}, {"class_name": "TensorFlowOpLayer", "config": {"name": "Tanh_49", "trainable": true, "dtype": "float32", "node_def": {"name": "Tanh_49", "op": "Tanh", "input": ["Softplus_49"], "attr": {"T": {"type": "DT_FLOAT"}}}, "constants": {}}, "name": "tf_op_layer_Tanh_49", "inbound_nodes": [[["tf_op_layer_Softplus_49", 0, 0, {}]]]}, {"class_name": "TensorFlowOpLayer", "config": {"name": "Mul_49", "trainable": true, "dtype": "float32", "node_def": {"name": "Mul_49", "op": "Mul", "input": ["batch_normalization_49/Identity", "Tanh_49"], "attr": {"T": {"type": "DT_FLOAT"}}}, "constants": {}}, "name": "tf_op_layer_Mul_49", "inbound_nodes": [[["batch_normalization_49", 0, 0, {}], ["tf_op_layer_Tanh_49", 0, 0, {}]]]}, {"class_name": "Conv2D", "config": {"name": "conv2d_50", "trainable": true, "dtype": "float32", "filters": 256, "kernel_size": [3, 3], "strides": [1, 1], "padding": "same", "data_format": "channels_last", "dilation_rate": [1, 1], "activation": "linear", "use_bias": false, "kernel_initializer": {"class_name": "GlorotUniform", "config": {"seed": null}}, "bias_initializer": {"class_name": "Zeros", "config": {}}, "kernel_regularizer": null, "bias_regularizer": null, "activity_regularizer": null, "kernel_constraint": null, "bias_constraint": null}, "name": "conv2d_50", "inbound_nodes": [[["tf_op_layer_Mul_49", 0, 0, {}]]]}, {"class_name": "BatchNormalization", "config": {"name": "batch_normalization_50", "trainable": true, "dtype": "float32", "axis": [3], "momentum": 0.99, "epsilon": 0.001, "center": true, "scale": true, "beta_initializer": {"class_name": "Zeros", "config": {}}, "gamma_initializer": {"class_name": "Ones", "config": {}}, "moving_mean_initializer": {"class_name": "Zeros", "config": {}}, "moving_variance_initializer": {"class_name": "Ones", "config": {}}, "beta_regularizer": null, "gamma_regularizer": null, "beta_constraint": null, "gamma_constraint": null}, "name": "batch_normalization_50", "inbound_nodes": [[["conv2d_50", 0, 0, {}]]]}, {"class_name": "TensorFlowOpLayer", "config": {"name": "Softplus_50", "trainable": true, "dtype": "float32", "node_def": {"name": "Softplus_50", "op": "Softplus", "input": ["batch_normalization_50/Identity"], "attr": {"T": {"type": "DT_FLOAT"}}}, "constants": {}}, "name": "tf_op_layer_Softplus_50", "inbound_nodes": [[["batch_normalization_50", 0, 0, {}]]]}, {"class_name": "TensorFlowOpLayer", "config": {"name": "Tanh_50", "trainable": true, "dtype": "float32", "node_def": {"name": "Tanh_50", "op": "Tanh", "input": ["Softplus_50"], "attr": {"T": {"type": "DT_FLOAT"}}}, "constants": {}}, "name": "tf_op_layer_Tanh_50", "inbound_nodes": [[["tf_op_layer_Softplus_50", 0, 0, {}]]]}, {"class_name": "TensorFlowOpLayer", "config": {"name": "Mul_50", "trainable": true, "dtype": "float32", "node_def": {"name": "Mul_50", "op": "Mul", "input": ["batch_normalization_50/Identity", "Tanh_50"], "attr": {"T": {"type": "DT_FLOAT"}}}, "constants": {}}, "name": "tf_op_layer_Mul_50", "inbound_nodes": [[["batch_normalization_50", 0, 0, {}], ["tf_op_layer_Tanh_50", 0, 0, {}]]]}, {"class_name": "TensorFlowOpLayer", "config": {"name": "AddV2_15", "trainable": true, "dtype": "float32", "node_def": {"name": "AddV2_15", "op": "AddV2", "input": ["Mul_50", "AddV2_14"], "attr": {"T": {"type": "DT_FLOAT"}}}, "constants": {}}, "name": "tf_op_layer_AddV2_15", "inbound_nodes": [[["tf_op_layer_Mul_50", 0, 0, {}], ["tf_op_layer_AddV2_14", 0, 0, {}]]]}, {"class_name": "Conv2D", "config": {"name": "conv2d_51", "trainable": true, "dtype": "float32", "filters": 256, "kernel_size": [1, 1], "strides": [1, 1], "padding": "same", "data_format": "channels_last", "dilation_rate": [1, 1], "activation": "linear", "use_bias": false, "kernel_initializer": {"class_name": "GlorotUniform", "config": {"seed": null}}, "bias_initializer": {"class_name": "Zeros", "config": {}}, "kernel_regularizer": null, "bias_regularizer": null, "activity_regularizer": null, "kernel_constraint": null, "bias_constraint": null}, "name": "conv2d_51", "inbound_nodes": [[["tf_op_layer_AddV2_15", 0, 0, {}]]]}, {"class_name": "BatchNormalization", "config": {"name": "batch_normalization_51", "trainable": true, "dtype": "float32", "axis": [3], "momentum": 0.99, "epsilon": 0.001, "center": true, "scale": true, "beta_initializer": {"class_name": "Zeros", "config": {}}, "gamma_initializer": {"class_name": "Ones", "config": {}}, "moving_mean_initializer": {"class_name": "Zeros", "config": {}}, "moving_variance_initializer": {"class_name": "Ones", "config": {}}, "beta_regularizer": null, "gamma_regularizer": null, "beta_constraint": null, "gamma_constraint": null}, "name": "batch_normalization_51", "inbound_nodes": [[["conv2d_51", 0, 0, {}]]]}, {"class_name": "TensorFlowOpLayer", "config": {"name": "Softplus_51", "trainable": true, "dtype": "float32", "node_def": {"name": "Softplus_51", "op": "Softplus", "input": ["batch_normalization_51/Identity"], "attr": {"T": {"type": "DT_FLOAT"}}}, "constants": {}}, "name": "tf_op_layer_Softplus_51", "inbound_nodes": [[["batch_normalization_51", 0, 0, {}]]]}, {"class_name": "TensorFlowOpLayer", "config": {"name": "Tanh_51", "trainable": true, "dtype": "float32", "node_def": {"name": "Tanh_51", "op": "Tanh", "input": ["Softplus_51"], "attr": {"T": {"type": "DT_FLOAT"}}}, "constants": {}}, "name": "tf_op_layer_Tanh_51", "inbound_nodes": [[["tf_op_layer_Softplus_51", 0, 0, {}]]]}, {"class_name": "TensorFlowOpLayer", "config": {"name": "Mul_51", "trainable": true, "dtype": "float32", "node_def": {"name": "Mul_51", "op": "Mul", "input": ["batch_normalization_51/Identity", "Tanh_51"], "attr": {"T": {"type": "DT_FLOAT"}}}, "constants": {}}, "name": "tf_op_layer_Mul_51", "inbound_nodes": [[["batch_normalization_51", 0, 0, {}], ["tf_op_layer_Tanh_51", 0, 0, {}]]]}, {"class_name": "Conv2D", "config": {"name": "conv2d_52", "trainable": true, "dtype": "float32", "filters": 256, "kernel_size": [3, 3], "strides": [1, 1], "padding": "same", "data_format": "channels_last", "dilation_rate": [1, 1], "activation": "linear", "use_bias": false, "kernel_initializer": {"class_name": "GlorotUniform", "config": {"seed": null}}, "bias_initializer": {"class_name": "Zeros", "config": {}}, "kernel_regularizer": null, "bias_regularizer": null, "activity_regularizer": null, "kernel_constraint": null, "bias_constraint": null}, "name": "conv2d_52", "inbound_nodes": [[["tf_op_layer_Mul_51", 0, 0, {}]]]}, {"class_name": "BatchNormalization", "config": {"name": "batch_normalization_52", "trainable": true, "dtype": "float32", "axis": [3], "momentum": 0.99, "epsilon": 0.001, "center": true, "scale": true, "beta_initializer": {"class_name": "Zeros", "config": {}}, "gamma_initializer": {"class_name": "Ones", "config": {}}, "moving_mean_initializer": {"class_name": "Zeros", "config": {}}, "moving_variance_initializer": {"class_name": "Ones", "config": {}}, "beta_regularizer": null, "gamma_regularizer": null, "beta_constraint": null, "gamma_constraint": null}, "name": "batch_normalization_52", "inbound_nodes": [[["conv2d_52", 0, 0, {}]]]}, {"class_name": "TensorFlowOpLayer", "config": {"name": "Softplus_52", "trainable": true, "dtype": "float32", "node_def": {"name": "Softplus_52", "op": "Softplus", "input": ["batch_normalization_52/Identity"], "attr": {"T": {"type": "DT_FLOAT"}}}, "constants": {}}, "name": "tf_op_layer_Softplus_52", "inbound_nodes": [[["batch_normalization_52", 0, 0, {}]]]}, {"class_name": "TensorFlowOpLayer", "config": {"name": "Tanh_52", "trainable": true, "dtype": "float32", "node_def": {"name": "Tanh_52", "op": "Tanh", "input": ["Softplus_52"], "attr": {"T": {"type": "DT_FLOAT"}}}, "constants": {}}, "name": "tf_op_layer_Tanh_52", "inbound_nodes": [[["tf_op_layer_Softplus_52", 0, 0, {}]]]}, {"class_name": "TensorFlowOpLayer", "config": {"name": "Mul_52", "trainable": true, "dtype": "float32", "node_def": {"name": "Mul_52", "op": "Mul", "input": ["batch_normalization_52/Identity", "Tanh_52"], "attr": {"T": {"type": "DT_FLOAT"}}}, "constants": {}}, "name": "tf_op_layer_Mul_52", "inbound_nodes": [[["batch_normalization_52", 0, 0, {}], ["tf_op_layer_Tanh_52", 0, 0, {}]]]}, {"class_name": "TensorFlowOpLayer", "config": {"name": "AddV2_16", "trainable": true, "dtype": "float32", "node_def": {"name": "AddV2_16", "op": "AddV2", "input": ["Mul_52", "AddV2_15"], "attr": {"T": {"type": "DT_FLOAT"}}}, "constants": {}}, "name": "tf_op_layer_AddV2_16", "inbound_nodes": [[["tf_op_layer_Mul_52", 0, 0, {}], ["tf_op_layer_AddV2_15", 0, 0, {}]]]}, {"class_name": "Conv2D", "config": {"name": "conv2d_53", "trainable": true, "dtype": "float32", "filters": 256, "kernel_size": [1, 1], "strides": [1, 1], "padding": "same", "data_format": "channels_last", "dilation_rate": [1, 1], "activation": "linear", "use_bias": false, "kernel_initializer": {"class_name": "GlorotUniform", "config": {"seed": null}}, "bias_initializer": {"class_name": "Zeros", "config": {}}, "kernel_regularizer": null, "bias_regularizer": null, "activity_regularizer": null, "kernel_constraint": null, "bias_constraint": null}, "name": "conv2d_53", "inbound_nodes": [[["tf_op_layer_AddV2_16", 0, 0, {}]]]}, {"class_name": "BatchNormalization", "config": {"name": "batch_normalization_53", "trainable": true, "dtype": "float32", "axis": [3], "momentum": 0.99, "epsilon": 0.001, "center": true, "scale": true, "beta_initializer": {"class_name": "Zeros", "config": {}}, "gamma_initializer": {"class_name": "Ones", "config": {}}, "moving_mean_initializer": {"class_name": "Zeros", "config": {}}, "moving_variance_initializer": {"class_name": "Ones", "config": {}}, "beta_regularizer": null, "gamma_regularizer": null, "beta_constraint": null, "gamma_constraint": null}, "name": "batch_normalization_53", "inbound_nodes": [[["conv2d_53", 0, 0, {}]]]}, {"class_name": "TensorFlowOpLayer", "config": {"name": "Softplus_53", "trainable": true, "dtype": "float32", "node_def": {"name": "Softplus_53", "op": "Softplus", "input": ["batch_normalization_53/Identity"], "attr": {"T": {"type": "DT_FLOAT"}}}, "constants": {}}, "name": "tf_op_layer_Softplus_53", "inbound_nodes": [[["batch_normalization_53", 0, 0, {}]]]}, {"class_name": "TensorFlowOpLayer", "config": {"name": "Tanh_53", "trainable": true, "dtype": "float32", "node_def": {"name": "Tanh_53", "op": "Tanh", "input": ["Softplus_53"], "attr": {"T": {"type": "DT_FLOAT"}}}, "constants": {}}, "name": "tf_op_layer_Tanh_53", "inbound_nodes": [[["tf_op_layer_Softplus_53", 0, 0, {}]]]}, {"class_name": "TensorFlowOpLayer", "config": {"name": "Mul_53", "trainable": true, "dtype": "float32", "node_def": {"name": "Mul_53", "op": "Mul", "input": ["batch_normalization_53/Identity", "Tanh_53"], "attr": {"T": {"type": "DT_FLOAT"}}}, "constants": {}}, "name": "tf_op_layer_Mul_53", "inbound_nodes": [[["batch_normalization_53", 0, 0, {}], ["tf_op_layer_Tanh_53", 0, 0, {}]]]}, {"class_name": "Conv2D", "config": {"name": "conv2d_54", "trainable": true, "dtype": "float32", "filters": 256, "kernel_size": [3, 3], "strides": [1, 1], "padding": "same", "data_format": "channels_last", "dilation_rate": [1, 1], "activation": "linear", "use_bias": false, "kernel_initializer": {"class_name": "GlorotUniform", "config": {"seed": null}}, "bias_initializer": {"class_name": "Zeros", "config": {}}, "kernel_regularizer": null, "bias_regularizer": null, "activity_regularizer": null, "kernel_constraint": null, "bias_constraint": null}, "name": "conv2d_54", "inbound_nodes": [[["tf_op_layer_Mul_53", 0, 0, {}]]]}, {"class_name": "BatchNormalization", "config": {"name": "batch_normalization_54", "trainable": true, "dtype": "float32", "axis": [3], "momentum": 0.99, "epsilon": 0.001, "center": true, "scale": true, "beta_initializer": {"class_name": "Zeros", "config": {}}, "gamma_initializer": {"class_name": "Ones", "config": {}}, "moving_mean_initializer": {"class_name": "Zeros", "config": {}}, "moving_variance_initializer": {"class_name": "Ones", "config": {}}, "beta_regularizer": null, "gamma_regularizer": null, "beta_constraint": null, "gamma_constraint": null}, "name": "batch_normalization_54", "inbound_nodes": [[["conv2d_54", 0, 0, {}]]]}, {"class_name": "TensorFlowOpLayer", "config": {"name": "Softplus_54", "trainable": true, "dtype": "float32", "node_def": {"name": "Softplus_54", "op": "Softplus", "input": ["batch_normalization_54/Identity"], "attr": {"T": {"type": "DT_FLOAT"}}}, "constants": {}}, "name": "tf_op_layer_Softplus_54", "inbound_nodes": [[["batch_normalization_54", 0, 0, {}]]]}, {"class_name": "TensorFlowOpLayer", "config": {"name": "Tanh_54", "trainable": true, "dtype": "float32", "node_def": {"name": "Tanh_54", "op": "Tanh", "input": ["Softplus_54"], "attr": {"T": {"type": "DT_FLOAT"}}}, "constants": {}}, "name": "tf_op_layer_Tanh_54", "inbound_nodes": [[["tf_op_layer_Softplus_54", 0, 0, {}]]]}, {"class_name": "TensorFlowOpLayer", "config": {"name": "Mul_54", "trainable": true, "dtype": "float32", "node_def": {"name": "Mul_54", "op": "Mul", "input": ["batch_normalization_54/Identity", "Tanh_54"], "attr": {"T": {"type": "DT_FLOAT"}}}, "constants": {}}, "name": "tf_op_layer_Mul_54", "inbound_nodes": [[["batch_normalization_54", 0, 0, {}], ["tf_op_layer_Tanh_54", 0, 0, {}]]]}, {"class_name": "TensorFlowOpLayer", "config": {"name": "AddV2_17", "trainable": true, "dtype": "float32", "node_def": {"name": "AddV2_17", "op": "AddV2", "input": ["Mul_54", "AddV2_16"], "attr": {"T": {"type": "DT_FLOAT"}}}, "constants": {}}, "name": "tf_op_layer_AddV2_17", "inbound_nodes": [[["tf_op_layer_Mul_54", 0, 0, {}], ["tf_op_layer_AddV2_16", 0, 0, {}]]]}, {"class_name": "Conv2D", "config": {"name": "conv2d_55", "trainable": true, "dtype": "float32", "filters": 256, "kernel_size": [1, 1], "strides": [1, 1], "padding": "same", "data_format": "channels_last", "dilation_rate": [1, 1], "activation": "linear", "use_bias": false, "kernel_initializer": {"class_name": "GlorotUniform", "config": {"seed": null}}, "bias_initializer": {"class_name": "Zeros", "config": {}}, "kernel_regularizer": null, "bias_regularizer": null, "activity_regularizer": null, "kernel_constraint": null, "bias_constraint": null}, "name": "conv2d_55", "inbound_nodes": [[["tf_op_layer_AddV2_17", 0, 0, {}]]]}, {"class_name": "BatchNormalization", "config": {"name": "batch_normalization_55", "trainable": true, "dtype": "float32", "axis": [3], "momentum": 0.99, "epsilon": 0.001, "center": true, "scale": true, "beta_initializer": {"class_name": "Zeros", "config": {}}, "gamma_initializer": {"class_name": "Ones", "config": {}}, "moving_mean_initializer": {"class_name": "Zeros", "config": {}}, "moving_variance_initializer": {"class_name": "Ones", "config": {}}, "beta_regularizer": null, "gamma_regularizer": null, "beta_constraint": null, "gamma_constraint": null}, "name": "batch_normalization_55", "inbound_nodes": [[["conv2d_55", 0, 0, {}]]]}, {"class_name": "TensorFlowOpLayer", "config": {"name": "Softplus_55", "trainable": true, "dtype": "float32", "node_def": {"name": "Softplus_55", "op": "Softplus", "input": ["batch_normalization_55/Identity"], "attr": {"T": {"type": "DT_FLOAT"}}}, "constants": {}}, "name": "tf_op_layer_Softplus_55", "inbound_nodes": [[["batch_normalization_55", 0, 0, {}]]]}, {"class_name": "TensorFlowOpLayer", "config": {"name": "Tanh_55", "trainable": true, "dtype": "float32", "node_def": {"name": "Tanh_55", "op": "Tanh", "input": ["Softplus_55"], "attr": {"T": {"type": "DT_FLOAT"}}}, "constants": {}}, "name": "tf_op_layer_Tanh_55", "inbound_nodes": [[["tf_op_layer_Softplus_55", 0, 0, {}]]]}, {"class_name": "TensorFlowOpLayer", "config": {"name": "Mul_55", "trainable": true, "dtype": "float32", "node_def": {"name": "Mul_55", "op": "Mul", "input": ["batch_normalization_55/Identity", "Tanh_55"], "attr": {"T": {"type": "DT_FLOAT"}}}, "constants": {}}, "name": "tf_op_layer_Mul_55", "inbound_nodes": [[["batch_normalization_55", 0, 0, {}], ["tf_op_layer_Tanh_55", 0, 0, {}]]]}, {"class_name": "Conv2D", "config": {"name": "conv2d_56", "trainable": true, "dtype": "float32", "filters": 256, "kernel_size": [3, 3], "strides": [1, 1], "padding": "same", "data_format": "channels_last", "dilation_rate": [1, 1], "activation": "linear", "use_bias": false, "kernel_initializer": {"class_name": "GlorotUniform", "config": {"seed": null}}, "bias_initializer": {"class_name": "Zeros", "config": {}}, "kernel_regularizer": null, "bias_regularizer": null, "activity_regularizer": null, "kernel_constraint": null, "bias_constraint": null}, "name": "conv2d_56", "inbound_nodes": [[["tf_op_layer_Mul_55", 0, 0, {}]]]}, {"class_name": "BatchNormalization", "config": {"name": "batch_normalization_56", "trainable": true, "dtype": "float32", "axis": [3], "momentum": 0.99, "epsilon": 0.001, "center": true, "scale": true, "beta_initializer": {"class_name": "Zeros", "config": {}}, "gamma_initializer": {"class_name": "Ones", "config": {}}, "moving_mean_initializer": {"class_name": "Zeros", "config": {}}, "moving_variance_initializer": {"class_name": "Ones", "config": {}}, "beta_regularizer": null, "gamma_regularizer": null, "beta_constraint": null, "gamma_constraint": null}, "name": "batch_normalization_56", "inbound_nodes": [[["conv2d_56", 0, 0, {}]]]}, {"class_name": "TensorFlowOpLayer", "config": {"name": "Softplus_56", "trainable": true, "dtype": "float32", "node_def": {"name": "Softplus_56", "op": "Softplus", "input": ["batch_normalization_56/Identity"], "attr": {"T": {"type": "DT_FLOAT"}}}, "constants": {}}, "name": "tf_op_layer_Softplus_56", "inbound_nodes": [[["batch_normalization_56", 0, 0, {}]]]}, {"class_name": "TensorFlowOpLayer", "config": {"name": "Tanh_56", "trainable": true, "dtype": "float32", "node_def": {"name": "Tanh_56", "op": "Tanh", "input": ["Softplus_56"], "attr": {"T": {"type": "DT_FLOAT"}}}, "constants": {}}, "name": "tf_op_layer_Tanh_56", "inbound_nodes": [[["tf_op_layer_Softplus_56", 0, 0, {}]]]}, {"class_name": "TensorFlowOpLayer", "config": {"name": "Mul_56", "trainable": true, "dtype": "float32", "node_def": {"name": "Mul_56", "op": "Mul", "input": ["batch_normalization_56/Identity", "Tanh_56"], "attr": {"T": {"type": "DT_FLOAT"}}}, "constants": {}}, "name": "tf_op_layer_Mul_56", "inbound_nodes": [[["batch_normalization_56", 0, 0, {}], ["tf_op_layer_Tanh_56", 0, 0, {}]]]}, {"class_name": "TensorFlowOpLayer", "config": {"name": "AddV2_18", "trainable": true, "dtype": "float32", "node_def": {"name": "AddV2_18", "op": "AddV2", "input": ["Mul_56", "AddV2_17"], "attr": {"T": {"type": "DT_FLOAT"}}}, "constants": {}}, "name": "tf_op_layer_AddV2_18", "inbound_nodes": [[["tf_op_layer_Mul_56", 0, 0, {}], ["tf_op_layer_AddV2_17", 0, 0, {}]]]}, {"class_name": "Conv2D", "config": {"name": "conv2d_57", "trainable": true, "dtype": "float32", "filters": 256, "kernel_size": [1, 1], "strides": [1, 1], "padding": "same", "data_format": "channels_last", "dilation_rate": [1, 1], "activation": "linear", "use_bias": false, "kernel_initializer": {"class_name": "GlorotUniform", "config": {"seed": null}}, "bias_initializer": {"class_name": "Zeros", "config": {}}, "kernel_regularizer": null, "bias_regularizer": null, "activity_regularizer": null, "kernel_constraint": null, "bias_constraint": null}, "name": "conv2d_57", "inbound_nodes": [[["tf_op_layer_AddV2_18", 0, 0, {}]]]}, {"class_name": "Conv2D", "config": {"name": "conv2d_39", "trainable": true, "dtype": "float32", "filters": 256, "kernel_size": [1, 1], "strides": [1, 1], "padding": "same", "data_format": "channels_last", "dilation_rate": [1, 1], "activation": "linear", "use_bias": false, "kernel_initializer": {"class_name": "GlorotUniform", "config": {"seed": null}}, "bias_initializer": {"class_name": "Zeros", "config": {}}, "kernel_regularizer": null, "bias_regularizer": null, "activity_regularizer": null, "kernel_constraint": null, "bias_constraint": null}, "name": "conv2d_39", "inbound_nodes": [[["tf_op_layer_Mul_38", 0, 0, {}]]]}, {"class_name": "BatchNormalization", "config": {"name": "batch_normalization_57", "trainable": true, "dtype": "float32", "axis": [3], "momentum": 0.99, "epsilon": 0.001, "center": true, "scale": true, "beta_initializer": {"class_name": "Zeros", "config": {}}, "gamma_initializer": {"class_name": "Ones", "config": {}}, "moving_mean_initializer": {"class_name": "Zeros", "config": {}}, "moving_variance_initializer": {"class_name": "Ones", "config": {}}, "beta_regularizer": null, "gamma_regularizer": null, "beta_constraint": null, "gamma_constraint": null}, "name": "batch_normalization_57", "inbound_nodes": [[["conv2d_57", 0, 0, {}]]]}, {"class_name": "BatchNormalization", "config": {"name": "batch_normalization_39", "trainable": true, "dtype": "float32", "axis": [3], "momentum": 0.99, "epsilon": 0.001, "center": true, "scale": true, "beta_initializer": {"class_name": "Zeros", "config": {}}, "gamma_initializer": {"class_name": "Ones", "config": {}}, "moving_mean_initializer": {"class_name": "Zeros", "config": {}}, "moving_variance_initializer": {"class_name": "Ones", "config": {}}, "beta_regularizer": null, "gamma_regularizer": null, "beta_constraint": null, "gamma_constraint": null}, "name": "batch_normalization_39", "inbound_nodes": [[["conv2d_39", 0, 0, {}]]]}, {"class_name": "TensorFlowOpLayer", "config": {"name": "Softplus_57", "trainable": true, "dtype": "float32", "node_def": {"name": "Softplus_57", "op": "Softplus", "input": ["batch_normalization_57/Identity"], "attr": {"T": {"type": "DT_FLOAT"}}}, "constants": {}}, "name": "tf_op_layer_Softplus_57", "inbound_nodes": [[["batch_normalization_57", 0, 0, {}]]]}, {"class_name": "TensorFlowOpLayer", "config": {"name": "Softplus_39", "trainable": true, "dtype": "float32", "node_def": {"name": "Softplus_39", "op": "Softplus", "input": ["batch_normalization_39/Identity"], "attr": {"T": {"type": "DT_FLOAT"}}}, "constants": {}}, "name": "tf_op_layer_Softplus_39", "inbound_nodes": [[["batch_normalization_39", 0, 0, {}]]]}, {"class_name": "TensorFlowOpLayer", "config": {"name": "Tanh_57", "trainable": true, "dtype": "float32", "node_def": {"name": "Tanh_57", "op": "Tanh", "input": ["Softplus_57"], "attr": {"T": {"type": "DT_FLOAT"}}}, "constants": {}}, "name": "tf_op_layer_Tanh_57", "inbound_nodes": [[["tf_op_layer_Softplus_57", 0, 0, {}]]]}, {"class_name": "TensorFlowOpLayer", "config": {"name": "Tanh_39", "trainable": true, "dtype": "float32", "node_def": {"name": "Tanh_39", "op": "Tanh", "input": ["Softplus_39"], "attr": {"T": {"type": "DT_FLOAT"}}}, "constants": {}}, "name": "tf_op_layer_Tanh_39", "inbound_nodes": [[["tf_op_layer_Softplus_39", 0, 0, {}]]]}, {"class_name": "TensorFlowOpLayer", "config": {"name": "Mul_57", "trainable": true, "dtype": "float32", "node_def": {"name": "Mul_57", "op": "Mul", "input": ["batch_normalization_57/Identity", "Tanh_57"], "attr": {"T": {"type": "DT_FLOAT"}}}, "constants": {}}, "name": "tf_op_layer_Mul_57", "inbound_nodes": [[["batch_normalization_57", 0, 0, {}], ["tf_op_layer_Tanh_57", 0, 0, {}]]]}, {"class_name": "TensorFlowOpLayer", "config": {"name": "Mul_39", "trainable": true, "dtype": "float32", "node_def": {"name": "Mul_39", "op": "Mul", "input": ["batch_normalization_39/Identity", "Tanh_39"], "attr": {"T": {"type": "DT_FLOAT"}}}, "constants": {}}, "name": "tf_op_layer_Mul_39", "inbound_nodes": [[["batch_normalization_39", 0, 0, {}], ["tf_op_layer_Tanh_39", 0, 0, {}]]]}, {"class_name": "Concatenate", "config": {"name": "concatenate_3", "trainable": true, "dtype": "float32", "axis": -1}, "name": "concatenate_3", "inbound_nodes": [[["tf_op_layer_Mul_57", 0, 0, {}], ["tf_op_layer_Mul_39", 0, 0, {}]]]}, {"class_name": "Conv2D", "config": {"name": "conv2d_58", "trainable": true, "dtype": "float32", "filters": 512, "kernel_size": [1, 1], "strides": [1, 1], "padding": "same", "data_format": "channels_last", "dilation_rate": [1, 1], "activation": "linear", "use_bias": false, "kernel_initializer": {"class_name": "GlorotUniform", "config": {"seed": null}}, "bias_initializer": {"class_name": "Zeros", "config": {}}, "kernel_regularizer": null, "bias_regularizer": null, "activity_regularizer": null, "kernel_constraint": null, "bias_constraint": null}, "name": "conv2d_58", "inbound_nodes": [[["concatenate_3", 0, 0, {}]]]}, {"class_name": "BatchNormalization", "config": {"name": "batch_normalization_58", "trainable": true, "dtype": "float32", "axis": [3], "momentum": 0.99, "epsilon": 0.001, "center": true, "scale": true, "beta_initializer": {"class_name": "Zeros", "config": {}}, "gamma_initializer": {"class_name": "Ones", "config": {}}, "moving_mean_initializer": {"class_name": "Zeros", "config": {}}, "moving_variance_initializer": {"class_name": "Ones", "config": {}}, "beta_regularizer": null, "gamma_regularizer": null, "beta_constraint": null, "gamma_constraint": null}, "name": "batch_normalization_58", "inbound_nodes": [[["conv2d_58", 0, 0, {}]]]}, {"class_name": "TensorFlowOpLayer", "config": {"name": "Softplus_58", "trainable": true, "dtype": "float32", "node_def": {"name": "Softplus_58", "op": "Softplus", "input": ["batch_normalization_58/Identity"], "attr": {"T": {"type": "DT_FLOAT"}}}, "constants": {}}, "name": "tf_op_layer_Softplus_58", "inbound_nodes": [[["batch_normalization_58", 0, 0, {}]]]}, {"class_name": "TensorFlowOpLayer", "config": {"name": "Tanh_58", "trainable": true, "dtype": "float32", "node_def": {"name": "Tanh_58", "op": "Tanh", "input": ["Softplus_58"], "attr": {"T": {"type": "DT_FLOAT"}}}, "constants": {}}, "name": "tf_op_layer_Tanh_58", "inbound_nodes": [[["tf_op_layer_Softplus_58", 0, 0, {}]]]}, {"class_name": "TensorFlowOpLayer", "config": {"name": "Mul_58", "trainable": true, "dtype": "float32", "node_def": {"name": "Mul_58", "op": "Mul", "input": ["batch_normalization_58/Identity", "Tanh_58"], "attr": {"T": {"type": "DT_FLOAT"}}}, "constants": {}}, "name": "tf_op_layer_Mul_58", "inbound_nodes": [[["batch_normalization_58", 0, 0, {}], ["tf_op_layer_Tanh_58", 0, 0, {}]]]}, {"class_name": "ZeroPadding2D", "config": {"name": "zero_padding2d_4", "trainable": true, "dtype": "float32", "padding": [[1, 0], [1, 0]], "data_format": "channels_last"}, "name": "zero_padding2d_4", "inbound_nodes": [[["tf_op_layer_Mul_58", 0, 0, {}]]]}, {"class_name": "Conv2D", "config": {"name": "conv2d_59", "trainable": true, "dtype": "float32", "filters": 1024, "kernel_size": [3, 3], "strides": [2, 2], "padding": "valid", "data_format": "channels_last", "dilation_rate": [1, 1], "activation": "linear", "use_bias": false, "kernel_initializer": {"class_name": "GlorotUniform", "config": {"seed": null}}, "bias_initializer": {"class_name": "Zeros", "config": {}}, "kernel_regularizer": null, "bias_regularizer": null, "activity_regularizer": null, "kernel_constraint": null, "bias_constraint": null}, "name": "conv2d_59", "inbound_nodes": [[["zero_padding2d_4", 0, 0, {}]]]}, {"class_name": "BatchNormalization", "config": {"name": "batch_normalization_59", "trainable": true, "dtype": "float32", "axis": [3], "momentum": 0.99, "epsilon": 0.001, "center": true, "scale": true, "beta_initializer": {"class_name": "Zeros", "config": {}}, "gamma_initializer": {"class_name": "Ones", "config": {}}, "moving_mean_initializer": {"class_name": "Zeros", "config": {}}, "moving_variance_initializer": {"class_name": "Ones", "config": {}}, "beta_regularizer": null, "gamma_regularizer": null, "beta_constraint": null, "gamma_constraint": null}, "name": "batch_normalization_59", "inbound_nodes": [[["conv2d_59", 0, 0, {}]]]}, {"class_name": "TensorFlowOpLayer", "config": {"name": "Softplus_59", "trainable": true, "dtype": "float32", "node_def": {"name": "Softplus_59", "op": "Softplus", "input": ["batch_normalization_59/Identity"], "attr": {"T": {"type": "DT_FLOAT"}}}, "constants": {}}, "name": "tf_op_layer_Softplus_59", "inbound_nodes": [[["batch_normalization_59", 0, 0, {}]]]}, {"class_name": "TensorFlowOpLayer", "config": {"name": "Tanh_59", "trainable": true, "dtype": "float32", "node_def": {"name": "Tanh_59", "op": "Tanh", "input": ["Softplus_59"], "attr": {"T": {"type": "DT_FLOAT"}}}, "constants": {}}, "name": "tf_op_layer_Tanh_59", "inbound_nodes": [[["tf_op_layer_Softplus_59", 0, 0, {}]]]}, {"class_name": "TensorFlowOpLayer", "config": {"name": "Mul_59", "trainable": true, "dtype": "float32", "node_def": {"name": "Mul_59", "op": "Mul", "input": ["batch_normalization_59/Identity", "Tanh_59"], "attr": {"T": {"type": "DT_FLOAT"}}}, "constants": {}}, "name": "tf_op_layer_Mul_59", "inbound_nodes": [[["batch_normalization_59", 0, 0, {}], ["tf_op_layer_Tanh_59", 0, 0, {}]]]}, {"class_name": "Conv2D", "config": {"name": "conv2d_61", "trainable": true, "dtype": "float32", "filters": 512, "kernel_size": [1, 1], "strides": [1, 1], "padding": "same", "data_format": …
2d_101", "inbound_nodes": [[["leaky_re_lu_27", 0, 0, {}]]]}, {"class_name": "Conv2D", "config": {"name": "conv2d_93", "trainable": true, "dtype": "float32", "filters": 255, "kernel_size": [1, 1], "strides": [1, 1], "padding": "same", "data_format": "channels_last", "dilation_rate": [1, 1], "activation": "linear", "use_bias": true, "kernel_initializer": {"class_name": "GlorotUniform", "config": {"seed": null}}, "bias_initializer": {"class_name": "Zeros", "config": {}}, "kernel_regularizer": null, "bias_regularizer": null, "activity_regularizer": null, "kernel_constraint": null, "bias_constraint": null}, "name": "conv2d_93", "inbound_nodes": [[["leaky_re_lu_20", 0, 0, {}]]]}, {"class_name": "Reshape", "config": {"name": "reshape_2", "trainable": true, "dtype": "float32", "target_shape": [13, 13, 3, 85]}, "name": "reshape_2", "inbound_nodes": [[["conv2d_109", 0, 0, {}]]]}, {"class_name": "Reshape", "config": {"name": "reshape_1", "trainable": true, "dtype": "float32", "target_shape": [26, 26, 3, 85]}, "name": "reshape_1", "inbound_nodes": [[["conv2d_101", 0, 0, {}]]]}, {"class_name": "Reshape", "config": {"name": "reshape", "trainable": true, "dtype": "float32", "target_shape": [52, 52, 3, 85]}, "name": "reshape", "inbound_nodes": [[["conv2d_93", 0, 0, {}]]]}, {"class_name": "Lambda", "config": {"name": "yolov3_boxes_regression_1", "trainable": true, "dtype": "float32", "function": ["4wEAAAAAAAAAAQAAAAQAAAATAAAAcw4AAAB0AHwAiABkARkAgwJTACkCTukAAAAAKQHaF3lvbG92\nM19ib3hlc19yZWdyZXNzaW9uKQHaB3hfaW5wdXQpAdoHYW5jaG9yc6kA+kYvb3B0L2NvbmRhL2xp\nYi9weXRob24zLjcvc2l0ZS1wYWNrYWdlcy90ZjJfeW9sb3Y0L2hlYWRzL3lvbG92M19oZWFkLnB5\n2gg8bGFtYmRhPmYAAADzAAAAAA==\n", null, [[[[… "function_type": "lambda", "module": "tf2_yolov4.heads.yolov3_head", "output_shape": null, "output_shape_type": "raw", "output_shape_module": null, "arguments": {}}, "name": "yolov3_boxes_regression_1", "inbound_nodes": [[["reshape_2", 0, 0, {}]]]}, {"class_name": "Lambda", "config": {"name": "yolov3_boxes_regression_2", "trainable": true, "dtype": "float32", "function": ["4wEAAAAAAAAAAQAAAAQAAAATAAAAcw4AAAB0AHwAiABkARkAgwJTACkCTukBAAAAKQHaF3lvbG92\nM19ib3hlc19yZWdyZXNzaW9uKQHaB3hfaW5wdXQpAdoHYW5jaG9yc6kA+kYvb3B0L2NvbmRhL2xp\nYi9weXRob24zLjcvc2l0ZS1wYWNrYWdlcy90ZjJfeW9sb3Y0L2hlYWRzL3lvbG92M19oZWFkLnB5\n2gg8bGFtYmRhPmoAAADzAAAAAA==\n", null, [[[[… "function_type": "lambda", "module": "tf2_yolov4.heads.yolov3_head", "output_shape": null, "output_shape_type": "raw", "output_shape_module": null, "arguments": {}}, "name": "yolov3_boxes_regression_2", "inbound_nodes": [[["reshape_1", 0, 0, {}]]]}, {"class_name": "Lambda", "config": {"name": "yolov3_boxes_regression_3", "trainable": true, "dtype": "float32", "function": ["4wEAAAAAAAAAAQAAAAQAAAATAAAAcw4AAAB0AHwAiABkARkAgwJTACkCTukCAAAAKQHaF3lvbG92\nM19ib3hlc19yZWdyZXNzaW9uKQHaB3hfaW5wdXQpAdoHYW5jaG9yc6kA+kYvb3B0L2NvbmRhL2xp\nYi9weXRob24zLjcvc2l0ZS1wYWNrYWdlcy90ZjJfeW9sb3Y0L2hlYWRzL3lvbG92M19oZWFkLnB5\n2gg8bGFtYmRhPm4AAADzAAAAAA==\n", null, [[[[… "function_type": "lambda", "module": "tf2_yolov4.heads.yolov3_head", "output_shape": null, "output_shape_type": "raw", "output_shape_module": null, "arguments": {}}, "name": "yolov3_boxes_regression_3", "inbound_nodes": [[["reshape", 0, 0, {}]]]}, {"class_name": "Lambda", "config": {"name": "yolov4_nms", "trainable": true, "dtype": "float32", "function": ["4wEAAAAAAAAAAQAAAAYAAAATAAAAcxAAAAB0AHwAiAGIAIgCZAGNBFMAKQJOKQPaDnlvbG9fbWF4\nX2JveGVz2hJ5b2xvX2lvdV90aHJlc2hvbGTaFHlvbG9fc2NvcmVfdGhyZXNob2xkKQHaCHlvbG9f\nbm1zKQHaB3hfaW5wdXQpA3ICAAAAcgEAAAByAwAAAKkA+kYvb3B0L2NvbmRhL2xpYi9weXRob24z\nLjcvc2l0ZS1wYWNrYWdlcy90ZjJfeW9sb3Y0L2hlYWRzL3lvbG92M19oZWFkLnB52gg8bGFtYmRh\nPnMAAABzCAAAAAIBAgECAQIB\n", null, [0.5, 50, 0.5]], "function_type": "lambda", "module": "tf2_yolov4.heads.yolov3_head", "output_shape": null, "output_shape_type": "raw", "output_shape_module": null, "arguments": {}}, "name": "yolov4_nms", "inbound_nodes": [[[["yolov3_boxes_regression_1", 0, 0, {}], ["yolov3_boxes_regression_1", 0, 1, {}], ["yolov3_boxes_regression_1", 0, 2, {}]], [["yolov3_boxes_regression_2", 0, 0, {}], ["yolov3_boxes_regression_2", 0, 1, {}], ["yolov3_boxes_regression_2", 0, 2, {}]], [["yolov3_boxes_regression_3", 0, 0, {}], ["yolov3_boxes_regression_3", 0, 1, {}], ["yolov3_boxes_regression_3", 0, 2, {}]]]]}], "input_layers": [["input_5", 0, 0], ["input_6", 0, 0], ["input_7", 0, 0]], "output_layers": [["yolov4_nms", 0, 0], ["yolov4_nms", 0, 1], ["yolov4_nms", 0, 2], ["yolov4_nms", 0, 3]]}, "name": "YOLOv3_head", "inbound_nodes": [[["YOLOv4_neck", 1, 0, {}], ["YOLOv4_neck", 1, 1, {}], ["YOLOv4_neck", 1, 2, {}]]]}], "input_layers": [["input_8", 0, 0]], "output_layers": [["YOLOv3_head", 1, 0], ["YOLOv3_head", 1, 1], ["YOLOv3_head", 1, 2], ["YOLOv3_head", 1, 3]]}}}, "weightsManifest": [{"paths": ["group1-shard1of62.bin", "group1-shard2of62.bin", "group1-shard3of62.bin", "group1-shard4of62.bin", "group1-shard5of62.bin", "group1-shard6of62.bin", "group1-shard7of62.bin", "group1-shard8of62.bin", "group1-shard9of62.bin", "group1-shard10of62.bin", "group1-shard11of62.bin", "group1-shard12of62.bin", "group1-shard13of62.bin", "group1-shard14of62.bin", "group1-shard15of62.bin", "group1-shard16of62.bin", "group1-shard17of62.bin", "group1-shard18of62.bin", "group1-shard19of62.bin", "group1-shard20of62.bin", "group1-shard21of62.bin", "group1-shard22of62.bin", "group1-shard23of62.bin", "group1-shard24of62.bin", "group1-shard25of62.bin", "group1-shard26of62.bin", "group1-shard27of62.bin", "group1-shard28of62.bin", "group1-shard29of62.bin", "group1-shard30of62.bin", "group1-shard31of62.bin", "group1-shard32of62.bin", "group1-shard33of62.bin", "group1-shard34of62.bin", "group1-shard35of62.bin", "group1-shard36of62.bin", "group1-shard37of62.bin", "group1-shard38of62.bin", "group1-shard39of62.bin", "group1-shard40of62.bin", "group1-shard41of62.bin", "group1-shard42of62.bin", "group1-shard43of62.bin", "group1-shard44of62.bin", "group1-shard45of62.bin", "group1-shard46of62.bin", "group1-shard47of62.bin", "group1-shard48of62.bin", "group1-shard49of62.bin", "group1-shard50of62.bin", "group1-shard51of62.bin", "group1-shard52of62.bin", "group1-shard53of62.bin", "group1-shard54of62.bin", "group1-shard55of62.bin", "group1-shard56of62.bin", "group1-shard57of62.bin", "group1-shard58of62.bin", "group1-shard59of62.bin", "group1-shard60of62.bin", "group1-shard61of62.bin", "group1-shard62of62.bin"], "weights": [{"name": "conv2d/kernel", "shape": [3, 3, 3, 32], "dtype": "float32"}, {"name": "batch_normalization/gamma", "shape": [32], "dtype": "float32"}, {"name": "batch_normalization/beta", "shape": [32], "dtype": "float32"}, {"name": "conv2d_1/kernel", "shape": [3, 3, 32, 64], "dtype": "float32"}, {"name": "batch_normalization_1/gamma", "shape": [64], "dtype": "float32"}, {"name": "batch_normalization_1/beta", "shape": [64], "dtype": "float32"}, {"name": "conv2d_3/kernel", "shape": [1, 1, 64, 64], "dtype": "float32"}, {"name": "batch_normalization_3/gamma", "shape": [64], "dtype": "float32"}, {"name": "batch_normalization_3/beta", "shape": [64], "dtype": "float32"}, {"name": "conv2d_4/kernel", "shape": [1, 1, 64, 32], "dtype": "float32"}, {"name": "batch_normalization_4/gamma", "shape": [32], "dtype": "float32"}, {"name": "batch_normalization_4/beta", "shape": [32], "dtype": "float32"}, {"name": "conv2d_5/kernel", "shape": [3, 3, 32, 64], "dtype": "float32"}, {"name": "batch_normalization_5/gamma", "shape": [64], "dtype": "float32"}, {"name": "batch_normalization_5/beta", "shape": [64], "dtype": "float32"}, {"name": "conv2d_6/kernel", "shape": [1, 1, 64, 64], "dtype": "float32"}, {"name": "conv2d_2/kernel", "shape": [1, 1, 64, 64], "dtype": "float32"}, {"name": "batch_normalization_6/gamma", "shape": [64], "dtype": "float32"}, {"name": "batch_normalization_6/beta", "shape": [64], "dtype": "float32"}, {"name": "batch_normalization_2/gamma", "shape": [64], "dtype": "float32"}, {"name": "batch_normalization_2/beta", "shape": [64], "dtype": "float32"}, {"name": "conv2d_7/kernel", "shape": [1, 1, 128, 64], "dtype": "float32"}, {"name": "batch_normalization_7/gamma", "shape": [64], "dtype": "float32"}, {"name": "batch_normalization_7/beta", "shape": [64], "dtype": "float32"}, {"name": "conv2d_8/kernel", "shape": [3, 3, 64, 128], "dtype": "float32"}, {"name": "batch_normalization_8/gamma", "shape": [128], "dtype": "float32"}, {"name": "batch_normalization_8/beta", "shape": [128], "dtype": "float32"}, {"name": "conv2d_10/kernel", "shape": [1, 1, 128, 64], "dtype": "float32"}, {"name": "batch_normalization_10/gamma", "shape": [64], "dtype": "float32"}, {"name": "batch_normalization_10/beta", "shape": [64], "dtype": "float32"}, {"name": "conv2d_11/kernel", "shape": [1, 1, 64, 64], "dtype": "float32"}, {"name": "batch_normalization_11/gamma", "shape": [64], "dtype": "float32"}, {"name": "batch_normalization_11/beta", "shape": [64], "dtype": "float32"}, {"name": "conv2d_12/kernel", "shape": [3, 3, 64, 64], "dtype": "float32"}, {"name": "batch_normalization_12/gamma", "shape": [64], "dtype": "float32"}, {"name": "batch_normalization_12/beta", "shape": [64], "dtype": "float32"}, {"name": "conv2d_13/kernel", "shape": [1, 1, 64, 64], "dtype": "float32"}, {"name": "batch_normalization_13/gamma", "shape": [64], "dtype": "float32"}, {"name": "batch_normalization_13/beta", "shape": [64], "dtype": "float32"}, {"name": "conv2d_14/kernel", "shape": [3, 3, 64, 64], "dtype": "float32"}, {"name": "batch_normalization_14/gamma", "shape": [64], "dtype": "float32"}, {"name": "batch_normalization_14/beta", "shape": [64], "dtype": "float32"}, {"name": "conv2d_15/kernel", "shape": [1, 1, 64, 64], "dtype": "float32"}, {"name": "conv2d_9/kernel", "shape": [1, 1, 128, 64], "dtype": "float32"}, {"name": "batch_normalization_15/gamma", "shape": [64], "dtype": "float32"}, {"name": "batch_normalization_15/beta", "shape": [64], "dtype": "float32"}, {"name": "batch_normalization_9/gamma", "shape": [64], "dtype": "float32"}, {"name": "batch_normalization_9/beta", "shape": [64], "dtype": "float32"}, {"name": "conv2d_16/kernel", "shape": [1, 1, 128, 128], "dtype": "float32"}, {"name": "batch_normalization_16/gamma", "shape": [128], "dtype": "float32"}, {"name": "batch_normalization_16/beta", "shape": [128], "dtype": "float32"}, {"name": "conv2d_17/kernel", "shape": [3, 3, 128, 256], "dtype": "float32"}, {"name": "batch_normalization_17/gamma", "shape": [256], "dtype": "float32"}, {"name": "batch_normalization_17/beta", "shape": [256], "dtype": "float32"}, {"name": "conv2d_19/kernel", "shape": [1, 1, 256, 128], "dtype": "float32"}, {"name": "batch_normalization_19/gamma", "shape": [128], "dtype": "float32"}, {"name": "batch_normalization_19/beta", "shape": [128], "dtype": "float32"}, {"name": "conv2d_20/kernel", "shape": [1, 1, 128, 128], "dtype": "float32"}, {"name": "batch_normalization_20/gamma", "shape": [128], "dtype": "float32"}, {"name": "batch_normalization_20/beta", "shape": [128], "dtype": "float32"}, {"name": "conv2d_21/kernel", "shape": [3, 3, 128, 128], "dtype": "float32"}, {"name": "batch_normalization_21/gamma", "shape": [128], "dtype": "float32"}, {"name": "batch_normalization_21/beta", "shape": [128], "dtype": "float32"}, {"name": "conv2d_22/kernel", "shape": [1, 1, 128, 128], "dtype": "float32"}, {"name": "batch_normalization_22/gamma", "shape": [128], "dtype": "float32"}, {"name": "batch_normalization_22/beta", "shape": [128], "dtype": "float32"}, {"name": "conv2d_23/kernel", "shape": [3, 3, 128, 128], "dtype": "float32"}, {"name": "batch_normalization_23/gamma", "shape": [128], "dtype": "float32"}, {"name": "batch_normalization_23/beta", "shape": [128], "dtype": "float32"}, {"name": "conv2d_24/kernel", "shape": [1, 1, 128, 128], "dtype": "float32"}, {"name": "batch_normalization_24/gamma", "shape": [128], "dtype": "float32"}, {"name": "batch_normalization_24/beta", "shape": [128], "dtype": "float32"}, {"name": "conv2d_25/kernel", "shape": [3, 3, 128, 128], "dtype": "float32"}, {"name": "batch_normalization_25/gamma", "shape": [128], "dtype": "float32"}, {"name": "batch_normalization_25/beta", "shape": [128], "dtype": "float32"}, {"name": "conv2d_26/kernel", "shape": [1, 1, 128, 128], "dtype": "float32"}, {"name": "batch_normalization_26/gamma", "shape": [128], "dtype": "float32"}, {"name": "batch_normalization_26/beta", "shape": [128], "dtype": "float32"}, {"name": "conv2d_27/kernel", "shape": [3, 3, 128, 128], "dtype": "float32"}, {"name": "batch_normalization_27/gamma", "shape": [128], "dtype": "float32"}, {"name": "batch_normalization_27/beta", "shape": [128], "dtype": "float32"}, {"name": "conv2d_28/kernel", "shape": [1, 1, 128, 128], "dtype": "float32"}, {"name": "batch_normalization_28/gamma", "shape": [128], "dtype": "float32"}, {"name": "batch_normalization_28/beta", "shape": [128], "dtype": "float32"}, {"name": "conv2d_29/kernel", "shape": [3, 3, 128, 128], "dtype": "float32"}, {"name": "batch_normalization_29/gamma", "shape": [128], "dtype": "float32"}, {"name": "batch_normalization_29/beta", "shape": [128], "dtype": "float32"}, {"name": "conv2d_30/kernel", "shape": [1, 1, 128, 128], "dtype": "float32"}, {"name": "batch_normalization_30/gamma", "shape": [128], "dtype": "float32"}, {"name": "batch_normalization_30/beta", "shape": [128], "dtype": "float32"}, {"name": "conv2d_31/kernel", "shape": [3, 3, 128, 128], "dtype": "float32"}, {"name": "batch_normalization_31/gamma", "shape": [128], "dtype": "float32"}, {"name": "batch_normalization_31/beta", "shape": [128], "dtype": "float32"}, {"name": "conv2d_32/kernel", "shape": [1, 1, 128, 128], "dtype": "float32"}, {"name": "batch_normalization_32/gamma", "shape": [128], "dtype": "float32"}, {"name": "batch_normalization_32/beta", "shape": [128], "dtype": "float32"}, {"name": "conv2d_33/kernel", "shape": [3, 3, 128, 128], "dtype": "float32"}, {"name": "batch_normalization_33/gamma", "shape": [128], "dtype": "float32"}, {"name": "batch_normalization_33/beta", "shape": [128], "dtype": "float32"}, {"name": "conv2d_34/kernel", "shape": [1, 1, 128, 128], "dtype": "float32"}, {"name": "batch_normalization_34/gamma", "shape": [128], "dtype": "float32"}, {"name": "batch_normalization_34/beta", "shape": [128], "dtype": "float32"}, {"name": "conv2d_35/kernel", "shape": [3, 3, 128, 128], "dtype": "float32"}, {"name": "batch_normalization_35/gamma", "shape": [128], "dtype": "float32"}, {"name": "batch_normalization_35/beta", "shape": [128], "dtype": "float32"}, {"name": "conv2d_36/kernel", "shape": [1, 1, 128, 128], "dtype": "float32"}, {"name": "conv2d_18/kernel", "shape": [1, 1, 256, 128], "dtype": "float32"}, {"name": "batch_normalization_36/gamma", "shape": [128], "dtype": "float32"}, {"name": "batch_normalization_36/beta", "shape": [128], "dtype": "float32"}, {"name": "batch_normalization_18/gamma", "shape": [128], "dtype": "float32"}, {"name": "batch_normalization_18/beta", "shape": [128], "dtype": "float32"}, {"name": "conv2d_37/kernel", "shape": [1, 1, 256, 256], "dtype": "float32"}, {"name": "batch_normalization_37/gamma", "shape": [256], "dtype": "float32"}, {"name": "batch_normalization_37/beta", "shape": [256], "dtype": "float32"}, {"name": "conv2d_38/kernel", "shape": [3, 3, 256, 512], "dtype": "float32"}, {"name": "batch_normalization_38/gamma", "shape": [512], "dtype": "float32"}, {"name": "batch_normalization_38/beta", "shape": [512], "dtype": "float32"}, {"name": "conv2d_40/kernel", "shape": [1, 1, 512, 256], "dtype": "float32"}, {"name": "batch_normalization_40/gamma", "shape": [256], "dtype": "float32"}, {"name": "batch_normalization_40/beta", "shape": [256], "dtype": "float32"}, {"name": "conv2d_41/kernel", "shape": [1, 1, 256, 256], "dtype": "float32"}, {"name": "batch_normalization_41/gamma", "shape": [256], "dtype": "float32"}, {"name": "batch_normalization_41/beta", "shape": [256], "dtype": "float32"}, {"name": "conv2d_42/kernel", "shape": [3, 3, 256, 256], "dtype": "float32"}, {"name": "batch_normalization_42/gamma", "shape": [256], "dtype": "float32"}, {"name": "batch_normalization_42/beta", "shape": [256], "dtype": "float32"}, {"name": "conv2d_43/kernel", "shape": [1, 1, 256, 256], "dtype": "float32"}, {"name": "batch_normalization_43/gamma", "shape": [256], "dtype": "float32"}, {"name": "batch_normalization_43/beta", "shape": [256], "dtype": "float32"}, {"name": "conv2d_44/kernel", "shape": [3, 3, 256, 256], "dtype": "float32"}, {"name": "batch_normalization_44/gamma", "shape": [256], "dtype": "float32"}, {"name": "batch_normalization_44/beta", "shape": [256], "dtype": "float32"}, {"name": "conv2d_45/kernel", "shape": [1, 1, 256, 256], "dtype": "float32"}, {"name": "batch_normalization_45/gamma", "shape": [256], "dtype": "float32"}, {"name": "batch_normalization_45/beta", "shape": [256], "dtype": "float32"}, {"name": "conv2d_46/kernel", "shape": [3, 3, 256, 256], "dtype": "float32"}, {"name": "batch_normalization_46/gamma", "shape": [256], "dtype": "float32"}, {"name": "batch_normalization_46/beta", "shape": [256], "dtype": "float32"}, {"name": "conv2d_47/kernel", "shape": [1, 1, 256, 256], "dtype": "float32"}, {"name": "batch_normalization_47/gamma", "shape": [256], "dtype": "float32"}, {"name": "batch_normalization_47/beta", "shape": [256], "dtype": "float32"}, {"name": "conv2d_48/kernel", "shape": [3, 3, 256, 256], "dtype": "float32"}, {"name": "batch_normalization_48/gamma", "shape": [256], "dtype": "float32"}, {"name": "batch_normalization_48/beta", "shape": [256], "dtype": "float32"}, {"name": "conv2d_49/kernel", "shape": [1, 1, 256, 256], "dtype": "float32"}, {"name": "batch_normalization_49/gamma", "shape": [256], "dtype": "float32"}, {"name": "batch_normalization_49/beta", "shape": [256], "dtype": "float32"}, {"name": "conv2d_50/kernel", "shape": [3, 3, 256, 256], "dtype": "float32"}, {"name": "batch_normalization_50/gamma", "shape": [256], "dtype": "float32"}, {"name": "batch_normalization_50/beta", "shape": [256], "dtype": "float32"}, {"name": "conv2d_51/kernel", "shape": [1, 1, 256, 256], "dtype": "float32"}, {"name": "batch_normalization_51/gamma", "shape": [256], "dtype": "float32"}, {"name": "batch_normalization_51/beta", "shape": [256], "dtype": "float32"}, {"name": "conv2d_52/kernel", "shape": [3, 3, 256, 256], "dtype": "float32"}, {"name": "batch_normalization_52/gamma", "shape": [256], "dtype": "float32"}, {"name": "batch_normalization_52/beta", "shape": [256], "dtype": "float32"}, {"name": "conv2d_53/kernel", "shape": [1, 1, 256, 256], "dtype": "float32"}, {"name": "batch_normalization_53/gamma", "shape": [256], "dtype": "float32"}, {"name": "batch_normalization_53/beta", "shape": [256], "dtype": "float32"}, {"name": "conv2d_54/kernel", "shape": [3, 3, 256, 256], "dtype": "float32"}, {"name": "batch_normalization_54/gamma", "shape": [256], "dtype": "float32"}, {"name": "batch_normalization_54/beta", "shape": [256], "dtype": "float32"}, {"name": "conv2d_55/kernel", "shape": [1, 1, 256, 256], "dtype": "float32"}, {"name": "batch_normalization_55/gamma", "shape": [256], "dtype": "float32"}, {"name": "batch_normalization_55/beta", "shape": [256], "dtype": "float32"}, {"name": "conv2d_56/kernel", "shape": [3, 3, 256, 256], "dtype": "float32"}, {"name": "batch_normalization_56/gamma", "shape": [256], "dtype": "float32"}, {"name": "batch_normalization_56/beta", "shape": [256], "dtype": "float32"}, {"name": "conv2d_57/kernel", "shape": [1, 1, 256, 256], "dtype": "float32"}, {"name": "conv2d_39/kernel", "shape": [1, 1, 512, 256], "dtype": "float32"}, {"name": "batch_normalization_57/gamma", "shape": [256], "dtype": "float32"}, {"name": "batch_normalization_57/beta", "shape": [256], "dtype": "float32"}, {"name": "batch_normalization_39/gamma", "shape": [256], "dtype": "float32"}, {"name": "batch_normalization_39/beta", "shape": [256], "dtype": "float32"}, {"name": "conv2d_58/kernel", "shape": [1, 1, 512, 512], "dtype": "float32"}, {"name": "batch_normalization_58/gamma", "shape": [512], "dtype": "float32"}, {"name": "batch_normalization_58/beta", "shape": [512], "dtype": "float32"}, {"name": "conv2d_59/kernel", "shape": [3, 3, 512, 1024], "dtype": "float32"}, {"name": "batch_normalization_59/gamma", "shape": [1024], "dtype": "float32"}, {"name": "batch_normalization_59/beta", "shape": [1024], "dtype": "float32"}, {"name": "conv2d_61/kernel", "shape": [1, 1, 1024, 512], "dtype": "float32"}, {"name": "batch_normalization_61/gamma", "shape": [512], "dtype": "float32"}, {"name": "batch_normalization_61/beta", "shape": [512], "dtype": "float32"}, {"name": "conv2d_62/kernel", "shape": [1, 1, 512, 512], "dtype": "float32"}, {"name": "batch_normalization_62/gamma", "shape": [512], "dtype": "float32"}, {"name": "batch_normalization_62/beta", "shape": [512], "dtype": "float32"}, {"name": "conv2d_63/kernel", "shape": [3, 3, 512, 512], "dtype": "float32"}, {"name": "batch_normalization_63/gamma", "shape": [512], "dtype": "float32"}, {"name": "batch_normalization_63/beta", "shape": [512], "dtype": "float32"}, {"name": "conv2d_64/kernel", "shape": [1, 1, 512, 512], "dtype": "float32"}, {"name": "batch_normalization_64/gamma", "shape": [512], "dtype": "float32"}, {"name": "batch_normalization_64/beta", "shape": [512], "dtype": "float32"}, {"name": "conv2d_65/kernel", "shape": [3, 3, 512, 512], "dtype": "float32"}, {"name": "batch_normalization_65/gamma", "shape": [512], "dtype": "float32"}, {"name": "batch_normalization_65/beta", "shape": [512], "dtype": "float32"}, {"name": "conv2d_66/kernel", "shape": [1, 1, 512, 512], "dtype": "float32"}, {"name": "batch_normalization_66/gamma", "shape": [512], "dtype": "float32"}, {"name": "batch_normalization_66/beta", "shape": [512], "dtype": "float32"}, {"name": "conv2d_67/kernel", "shape": [3, 3, 512, 512], "dtype": "float32"}, {"name": "batch_normalization_67/gamma", "shape": [512], "dtype": "float32"}, {"name": "batch_normalization_67/beta", "shape": [512], "dtype": "float32"}, {"name": "conv2d_68/kernel", "shape": [1, 1, 512, 512], "dtype": "float32"}, {"name": "batch_normalization_68/gamma", "shape": [512], "dtype": "float32"}, {"name": "batch_normalization_68/beta", "shape": [512], "dtype": "float32"}, {"name": "conv2d_69/kernel", "shape": [3, 3, 512, 512], "dtype": "float32"}, {"name": "batch_normalization_69/gamma", "shape": [512], "dtype": "float32"}, {"name": "batch_normalization_69/beta", "shape": [512], "dtype": "float32"}, {"name": "conv2d_70/kernel", "shape": [1, 1, 512, 512], "dtype": "float32"}, {"name": "conv2d_60/kernel", "shape": [1, 1, 1024, 512], "dtype": "float32"}, {"name": "batch_normalization_70/gamma", "shape": [512], "dtype": "float32"}, {"name": "batch_normalization_70/beta", "shape": [512], "dtype": "float32"}, {"name": "batch_normalization_60/gamma", "shape": [512], "dtype": "float32"}, {"name": "batch_normalization_60/beta", "shape": [512], "dtype": "float32"}, {"name": "conv2d_71/kernel", "shape": [1, 1, 1024, 1024], "dtype": "float32"}, {"name": "batch_normalization_71/gamma", "shape": [1024], "dtype": "float32"}, {"name": "batch_normalization_71/beta", "shape": [1024], "dtype": "float32"}, {"name": "batch_normalization/moving_mean", "shape": [32], "dtype": "float32"}, {"name": "batch_normalization/moving_variance", "shape": [32], "dtype": "float32"}, {"name": "batch_normalization_1/moving_mean", "shape": [64], "dtype": "float32"}, {"name": "batch_normalization_1/moving_variance", "shape": [64], "dtype": "float32"}, {"name": "batch_normalization_3/moving_mean", "shape": [64], "dtype": "float32"}, {"name": "batch_normalization_3/moving_variance", "shape": [64], "dtype": "float32"}, {"name": "batch_normalization_4/moving_mean", "shape": [32], "dtype": "float32"}, {"name": "batch_normalization_4/moving_variance", "shape": [32], "dtype": "float32"}, {"name": "batch_normalization_5/moving_mean", "shape": [64], "dtype": "float32"}, {"name": "batch_normalization_5/moving_variance", "shape": [64], "dtype": "float32"}, {"name": "batch_normalization_6/moving_mean", "shape": [64], "dtype": "float32"}, {"name": "batch_normalization_6/moving_variance", "shape": [64], "dtype": "float32"}, {"name": "batch_normalization_2/moving_mean", "shape": [64], "dtype": "float32"}, {"name": "batch_normalization_2/moving_variance", "shape": [64], "dtype": "float32"}, {"name": "batch_normalization_7/moving_mean", "shape": [64], "dtype": "float32"}, {"name": "batch_normalization_7/moving_variance", "shape": [64], "dtype": "float32"}, {"name": "batch_normalization_8/moving_mean", "shape": [128], "dtype": "float32"}, {"name": "batch_normalization_8/moving_variance", "shape": [128], "dtype": "float32"}, {"name": "batch_normalization_10/moving_mean", "shape": [64], "dtype": "float32"}, {"name": "batch_normalization_10/moving_variance", "shape": [64], "dtype": "float32"}, {"name": "batch_normalization_11/moving_mean", "shape": [64], "dtype": "float32"}, {"name": "batch_normalization_11/moving_variance", "shape": [64], "dtype": "float32"}, {"name": "batch_normalization_12/moving_mean", "shape": [64], "dtype": "float32"}, {"name": "batch_normalization_12/moving_variance", "shape": [64], "dtype": "float32"}, {"name": "batch_normalization_13/moving_mean", "shape": [64], "dtype": "float32"}, {"name": "batch_normalization_13/moving_variance", "shape": [64], "dtype": "float32"}, {"name": "batch_normalization_14/moving_mean", "shape": [64], "dtype": "float32"}, {"name": "batch_normalization_14/moving_variance", "shape": [64], "dtype": "float32"}, {"name": "batch_normalization_15/moving_mean", "shape": [64], "dtype": "float32"}, {"name": "batch_normalization_15/moving_variance", "shape": [64], "dtype": "float32"}, {"name": "batch_normalization_9/moving_mean", "shape": [64], "dtype": "float32"}, {"name": "batch_normalization_9/moving_variance", "shape": [64], "dtype": "float32"}, {"name": "batch_normalization_16/moving_mean", "shape": [128], "dtype": "float32"}, {"name": "batch_normalization_16/moving_variance", "shape": [128], "dtype": "float32"}, {"name": "batch_normalization_17/moving_mean", "shape": [256], "dtype": "float32"}, {"name": "batch_normalization_17/moving_variance", "shape": [256], "dtype": "float32"}, {"name": "batch_normalization_19/moving_mean", "shape": [128], "dtype": "float32"}, {"name": "batch_normalization_19/moving_variance", "shape": [128], "dtype": "float32"}, {"name": "batch_normalization_20/moving_mean", "shape": [128], "dtype": "float32"}, {"name": "batch_normalization_20/moving_variance", "shape": [128], "dtype": "float32"}, {"name": "batch_normalization_21/moving_mean", "shape": [128], "dtype": "float32"}, {"name": "batch_normalization_21/moving_variance", "shape": [128], "dtype": "float32"}, {"name": "batch_normalization_22/moving_mean", "shape": [128], "dtype": "float32"}, {"name": "batch_normalization_22/moving_variance", "shape": [128], "dtype": "float32"}, {"name": "batch_normalization_23/moving_mean", "shape": [128], "dtype": "float32"}, {"name": "batch_normalization_23/moving_variance", "shape": [128], "dtype": "float32"}, {"name": "batch_normalization_24/moving_mean", "shape": [128], "dtype": "float32"}, {"name": "batch_normalization_24/moving_variance", "shape": [128], "dtype": "float32"}, {"name": "batch_normalization_25/moving_mean", "shape": [128], "dtype": "float32"}, {"name": "batch_normalization_25/moving_variance", "shape": [128], "dtype": "float32"}, {"name": "batch_normalization_26/moving_mean", "shape": [128], "dtype": "float32"}, {"name": "batch_normalization_26/moving_variance", "shape": [128], "dtype": "float32"}, {"name": "batch_normalization_27/moving_mean", "shape": [128], "dtype": "float32"}, {"name": "batch_normalization_27/moving_variance", "shape": [128], "dtype": "float32"}, {"name": "batch_normalization_28/moving_mean", "shape": [128], "dtype": "float32"}, {"name": "batch_normalization_28/moving_variance", "shape": [128], "dtype": "float32"}, {"name": "batch_normalization_29/moving_mean", "shape": [128], "dtype": "float32"}, {"name": "batch_normalization_29/moving_variance", "shape": [128], "dtype": "float32"}, {"name": "batch_normalization_30/moving_mean", "shape": [128], "dtype": "float32"}, {"name": "batch_normalization_30/moving_variance", "shape": [128], "dtype": "float32"}, {"name": "batch_normalization_31/moving_mean", "shape": [128], "dtype": "float32"}, {"name": "batch_normalization_31/moving_variance", "shape": [128], "dtype": "float32"}, {"name": "batch_normalization_32/moving_mean", "shape": [128], "dtype": "float32"}, {"name": "batch_normalization_32/moving_variance", "shape": [128], "dtype": "float32"}, {"name": "batch_normalization_33/moving_mean", "shape": [128], "dtype": "float32"}, {"name": "batch_normalization_33/moving_variance", "shape": [128], "dtype": "float32"}, {"name": "batch_normalization_34/moving_mean", "shape": [128], "dtype": "float32"}, {"name": "batch_normalization_34/moving_variance", "shape": [128], "dtype": "float32"}, {"name": "batch_normalization_35/moving_mean", "shape": [128], "dtype": "float32"}, {"name": "batch_normalization_35/moving_variance", "shape": [128], "dtype": "float32"}, {"name": "batch_normalization_36/moving_mean", "shape": [128], "dtype": "float32"}, {"name": "batch_normalization_36/moving_variance", "shape": [128], "dtype": "float32"}, {"name": "batch_normalization_18/moving_mean", "shape": [128], "dtype": "float32"}, {"name": "batch_normalization_18/moving_variance", "shape": [128], "dtype": "float32"}, {"name": "batch_normalization_37/moving_mean", "shape": [256], "dtype": "float32"}, {"name": "batch_normalization_37/moving_variance", "shape": [256], "dtype": "float32"}, {"name": "batch_normalization_38/moving_mean", "shape": [512], "dtype": "float32"}, {"name": "batch_normalization_38/moving_variance", "shape": [512], "dtype": "float32"}, {"name": "batch_normalization_40/moving_mean", "shape": [256], "dtype": "float32"}, {"name": "batch_normalization_40/moving_variance", "shape": [256], "dtype": "float32"}, {"name": "batch_normalization_41/moving_mean", "shape": [256], "dtype": "float32"}, {"name": "batch_normalization_41/moving_variance", "shape": [256], "dtype": "float32"}, {"name": "batch_normalization_42/moving_mean", "shape": [256], "dtype": "float32"}, {"name": "batch_normalization_42/moving_variance", "shape": [256], "dtype": "float32"}, {"name": "batch_normalization_43/moving_mean", "shape": [256], "dtype": "float32"}, {"name": "batch_normalization_43/moving_variance", "shape": [256], "dtype": "float32"}, {"name": "batch_normalization_44/moving_mean", "shape": [256], "dtype": "float32"}, {"name": "batch_normalization_44/moving_variance", "shape": [256], "dtype": "float32"}, {"name": "batch_normalization_45/moving_mean", "shape": [256], "dtype": "float32"}, {"name": "batch_normalization_45/moving_variance", "shape": [256], "dtype": "float32"}, {"name": "batch_normalization_46/moving_mean", "shape": [256], "dtype": "float32"}, {"name": "batch_normalization_46/moving_variance", "shape": [256], "dtype": "float32"}, {"name": "batch_normalization_47/moving_mean", "shape": [256], "dtype": "float32"}, {"name": "batch_normalization_47/moving_variance", "shape": [256], "dtype": "float32"}, {"name": "batch_normalization_48/moving_mean", "shape": [256], "dtype": "float32"}, {"name": "batch_normalization_48/moving_variance", "shape": [256], "dtype": "float32"}, {"name": "batch_normalization_49/moving_mean", "shape": [256], "dtype": "float32"}, {"name": "batch_normalization_49/moving_variance", "shape": [256], "dtype": "float32"}, {"name": "batch_normalization_50/moving_mean", "shape": [256], "dtype": "float32"}, {"name": "batch_normalization_50/moving_variance", "shape": [256], "dtype": "float32"}, {"name": "batch_normalization_51/moving_mean", "shape": [256], "dtype": "float32"}, {"name": "batch_normalization_51/moving_variance", "shape": [256], "dtype": "float32"}, {"name": "batch_normalization_52/moving_mean", "shape": [256], "dtype": "float32"}, {"name": "batch_normalization_52/moving_variance", "shape": [256], "dtype": "float32"}, {"name": "batch_normalization_53/moving_mean", "shape": [256], "dtype": "float32"}, {"name": "batch_normalization_53/moving_variance", "shape": [256], "dtype": "float32"}, {"name": "batch_normalization_54/moving_mean", "shape": [256], "dtype": "float32"}, {"name": "batch_normalization_54/moving_variance", "shape": [256], "dtype": "float32"}, {"name": "batch_normalization_55/moving_mean", "shape": [256], "dtype": "float32"}, {"name": "batch_normalization_55/moving_variance", "shape": [256], "dtype": "float32"}, {"name": "batch_normalization_56/moving_mean", "shape": [256], "dtype": "float32"}, {"name": "batch_normalization_56/moving_variance", "shape": [256], "dtype": "float32"}, {"name": "batch_normalization_57/moving_mean", "shape": [256], "dtype": "float32"}, {"name": "batch_normalization_57/moving_variance", "shape": [256], "dtype": "float32"}, {"name": "batch_normalization_39/moving_mean", "shape": [256], "dtype": "float32"}, {"name": "batch_normalization_39/moving_variance", "shape": [256], "dtype": "float32"}, {"name": "batch_normalization_58/moving_mean", "shape": [512], "dtype": "float32"}, {"name": "batch_normalization_58/moving_variance", "shape": [512], "dtype": "float32"}, {"name": "batch_normalization_59/moving_mean", "shape": [1024], "dtype": "float32"}, {"name": "batch_normalization_59/moving_variance", "shape": [1024], "dtype": "float32"}, {"name": "batch_normalization_61/moving_mean", "shape": [512], "dtype": "float32"}, {"name": "batch_normalization_61/moving_variance", "shape": [512], "dtype": "float32"}, {"name": "batch_normalization_62/moving_mean", "shape": [512], "dtype": "float32"}, {"name": "batch_normalization_62/moving_variance", "shape": [512], "dtype": "float32"}, {"name": "batch_normalization_63/moving_mean", "shape": [512], "dtype": "float32"}, {"name": "batch_normalization_63/moving_variance", "shape": [512], "dtype": "float32"}, {"name": "batch_normalization_64/moving_mean", "shape": [512], "dtype": "float32"}, {"name": "batch_normalization_64/moving_variance", "shape": [512], "dtype": "float32"}, {"name": "batch_normalization_65/moving_mean", "shape": [512], "dtype": "float32"}, {"name": "batch_normalization_65/moving_variance", "shape": [512], "dtype": "float32"}, {"name": "batch_normalization_66/moving_mean", "shape": [512], "dtype": "float32"}, {"name": "batch_normalization_66/moving_variance", "shape": [512], "dtype": "float32"}, {"name": "batch_normalization_67/moving_mean", "shape": [512], "dtype": "float32"}, {"name": "batch_normalization_67/moving_variance", "shape": [512], "dtype": "float32"}, {"name": "batch_normalization_68/moving_mean", "shape": [512], "dtype": "float32"}, {"name": "batch_normalization_68/moving_variance", "shape": [512], "dtype": "float32"}, {"name": "batch_normalization_69/moving_mean", "shape": [512], "dtype": "float32"}, {"name": "batch_normalization_69/moving_variance", "shape": [512], "dtype": "float32"}, {"name": "batch_normalization_70/moving_mean", "shape": [512], "dtype": "float32"}, {"name": "batch_normalization_70/moving_variance", "shape": [512], "dtype": "float32"}, {"name": "batch_normalization_60/moving_mean", "shape": [512], "dtype": "float32"}, {"name": "batch_normalization_60/moving_variance", "shape": [512], "dtype": "float32"}, {"name": "batch_normalization_71/moving_mean", "shape": [1024], "dtype": "float32"}, {"name": "batch_normalization_71/moving_variance", "shape": [1024], "dtype": "float32"}, {"name": "conv2d_94/kernel", "shape": [3, 3, 128, 256], "dtype": "float32"}, {"name": "batch_normalization_93/gamma", "shape": [256], "dtype": "float32"}, {"name": "batch_normalization_93/beta", "shape": [256], "dtype": "float32"}, {"name": "conv2d_95/kernel", "shape": [1, 1, 512, 256], "dtype": "float32"}, {"name": "batch_normalization_94/gamma", "shape": [256], "dtype": "float32"}, {"name": "batch_normalization_94/beta", "shape": [256], "dtype": "float32"}, {"name": "conv2d_96/kernel", "shape": [3, 3, 256, 512], "dtype": "float32"}, {"name": "batch_normalization_95/gamma", "shape": [512], "dtype": "float32"}, {"name": "batch_normalization_95/beta", "shape": [512], "dtype": "float32"}, {"name": "conv2d_97/kernel", "shape": [1, 1, 512, 256], "dtype": "float32"}, {"name": "batch_normalization_96/gamma", "shape": [256], "dtype": "float32"}, {"name": "batch_normalization_96/beta", "shape": [256], "dtype": "float32"}, {"name": "conv2d_98/kernel", "shape": [3, 3, 256, 512], "dtype": "float32"}, {"name": "batch_normalization_97/gamma", "shape": [512], "dtype": "float32"}, {"name": "batch_normalization_97/beta", "shape": [512], "dtype": "float32"}, {"name": "conv2d_99/kernel", "shape": [1, 1, 512, 256], "dtype": "float32"}, {"name": "batch_normalization_98/gamma", "shape": [256], "dtype": "float32"}, {"name": "batch_normalization_98/beta", "shape": [256], "dtype": "float32"}, {"name": "conv2d_102/kernel", "shape": [3, 3, 256, 512], "dtype": "float32"}, {"name": "batch_normalization_100/gamma", "shape": [512], "dtype": "float32"}, {"name": "batch_normalization_100/beta", "shape": [512], "dtype": "float32"}, {"name": "conv2d_103/kernel", "shape": [1, 1, 1024, 512], "dtype": "float32"}, {"name": "batch_normalization_101/gamma", "shape": [512], "dtype": "float32"}, {"name": "batch_normalization_101/beta", "shape": [512], "dtype": "float32"}, {"name": "conv2d_104/kernel", "shape": [3, 3, 512, 1024], "dtype": "float32"}, {"name": "batch_normalization_102/gamma", "shape": [1024], "dtype": "float32"}, {"name": "batch_normalization_102/beta", "shape": [1024], "dtype": "float32"}, {"name": "conv2d_105/kernel", "shape": [1, 1, 1024, 512], "dtype": "float32"}, {"name": "batch_normalization_103/gamma", "shape": [512], "dtype": "float32"}, {"name": "batch_normalization_103/beta", "shape": [512], "dtype": "float32"}, {"name": "conv2d_106/kernel", "shape": [3, 3, 512, 1024], "dtype": "float32"}, {"name": "batch_normalization_104/gamma", "shape": [1024], "dtype": "float32"}, {"name": "batch_normalization_104/beta", "shape": [1024], "dtype": "float32"}, {"name": "conv2d_107/kernel", "shape": [1, 1, 1024, 512], "dtype": "float32"}, {"name": "batch_normalization_105/gamma", "shape": [512], "dtype": "float32"}, {"name": "batch_normalization_105/beta", "shape": [512], "dtype": "float32"}, {"name": "conv2d_108/kernel", "shape": [3, 3, 512, 1024], "dtype": "float32"}, {"name": "conv2d_100/kernel", "shape": [3, 3, 256, 512], "dtype": "float32"}, {"name": "conv2d_92/kernel", "shape": [3, 3, 128, 256], "dtype": "float32"}, {"name": "batch_normalization_106/gamma", "shape": [1024], "dtype": "float32"}, {"name": "batch_normalization_106/beta", "shape": [1024], "dtype": "float32"}, {"name": "batch_normalization_99/gamma", "shape": [512], "dtype": "float32"}, {"name": "batch_normalization_99/beta", "shape": [512], "dtype": "float32"}, {"name": "batch_normalization_92/gamma", "shape": [256], "dtype": "float32"}, {"name": "batch_normalization_92/beta", "shape": [256], "dtype": "float32"}, {"name": "conv2d_109/kernel", "shape": [1, 1, 1024, 255], "dtype": "float32"}, {"name": "conv2d_109/bias", "shape": [255], "dtype": "float32"}, {"name": "conv2d_101/kernel", "shape": [1, 1, 512, 255], "dtype": "float32"}, {"name": "conv2d_101/bias", "shape": [255], "dtype": "float32"}, {"name": "conv2d_93/kernel", "shape": [1, 1, 256, 255], "dtype": "float32"}, {"name": "conv2d_93/bias", "shape": [255], "dtype": "float32"}, {"name": "batch_normalization_93/moving_mean", "shape": [256], "dtype": "float32"}, {"name": "batch_normalization_93/moving_variance", "shape": [256], "dtype": "float32"}, {"name": "batch_normalization_94/moving_mean", "shape": [256], "dtype": "float32"}, {"name": "batch_normalization_94/moving_variance", "shape": [256], "dtype": "float32"}, {"name": "batch_normalization_95/moving_mean", "shape": [512], "dtype": "float32"}, {"name": "batch_normalization_95/moving_variance", "shape": [512], "dtype": "float32"}, {"name": "batch_normalization_96/moving_mean", "shape": [256], "dtype": "float32"}, {"name": "batch_normalization_96/moving_variance", "shape": [256], "dtype": "float32"}, {"name": "batch_normalization_97/moving_mean", "shape": [512], "dtype": "float32"}, {"name": "batch_normalization_97/moving_variance", "shape": [512], "dtype": "float32"}, {"name": "batch_normalization_98/moving_mean", "shape": [256], "dtype": "float32"}, {"name": "batch_normalization_98/moving_variance", "shape": [256], "dtype": "float32"}, {"name": "batch_normalization_100/moving_mean", "shape": [512], "dtype": "float32"}, {"name": "batch_normalization_100/moving_variance", "shape": [512], "dtype": "float32"}, {"name": "batch_normalization_101/moving_mean", "shape": [512], "dtype": "float32"}, {"name": "batch_normalization_101/moving_variance", "shape": [512], "dtype": "float32"}, {"name": "batch_normalization_102/moving_mean", "shape": [1024], "dtype": "float32"}, {"name": "batch_normalization_102/moving_variance", "shape": [1024], "dtype": "float32"}, {"name": "batch_normalization_103/moving_mean", "shape": [512], "dtype": "float32"}, {"name": "batch_normalization_103/moving_variance", "shape": [512], "dtype": "float32"}, {"name": "batch_normalization_104/moving_mean", "shape": [1024], "dtype": "float32"}, {"name": "batch_normalization_104/moving_variance", "shape": [1024], "dtype": "float32"}, {"name": "batch_normalization_105/moving_mean", "shape": [512], "dtype": "float32"}, {"name": "batch_normalization_105/moving_variance", "shape": [512], "dtype": "float32"}, {"name": "batch_normalization_106/moving_mean", "shape": [1024], "dtype": "float32"}, {"name": "batch_normalization_106/moving_variance", "shape": [1024], "dtype": "float32"}, {"name": "batch_normalization_99/moving_mean", "shape": [512], "dtype": "float32"}, {"name": "batch_normalization_99/moving_variance", "shape": [512], "dtype": "float32"}, {"name": "batch_normalization_92/moving_mean", "shape": [256], "dtype": "float32"}, {"name": "batch_normalization_92/moving_variance", "shape": [256], "dtype": "float32"}, {"name": "conv2d_72/kernel", "shape": [1, 1, 1024, 512], "dtype": "float32"}, {"name": "batch_normalization_72/gamma", "shape": [512], "dtype": "float32"}, {"name": "batch_normalization_72/beta", "shape": [512], "dtype": "float32"}, {"name": "conv2d_73/kernel", "shape": [3, 3, 512, 1024], "dtype": "float32"}, {"name": "batch_normalization_73/gamma", "shape": [1024], "dtype": "float32"}, {"name": "batch_normalization_73/beta", "shape": [1024], "dtype": "float32"}, {"name": "conv2d_74/kernel", "shape": [1, 1, 1024, 512], "dtype": "float32"}, {"name": "batch_normalization_74/gamma", "shape": [512], "dtype": "float32"}, {"name": "batch_normalization_74/beta", "shape": [512], "dtype": "float32"}, {"name": "conv2d_75/kernel", "shape": [1, 1, 2048, 512], "dtype": "float32"}, {"name": "batch_normalization_75/gamma", "shape": [512], "dtype": "float32"}, {"name": "batch_normalization_75/beta", "shape": [512], "dtype": "float32"}, {"name": "conv2d_76/kernel", "shape": [3, 3, 512, 1024], "dtype": "float32"}, {"name": "batch_normalization_76/gamma", "shape": [1024], "dtype": "float32"}, {"name": "batch_normalization_76/beta", "shape": [1024], "dtype": "float32"}, {"name": "conv2d_77/kernel", "shape": [1, 1, 1024, 512], "dtype": "float32"}, {"name": "batch_normalization_77/gamma", "shape": [512], "dtype": "float32"}, {"name": "batch_normalization_77/beta", "shape": [512], "dtype": "float32"}, {"name": "conv2d_78/kernel", "shape": [1, 1, 512, 256], "dtype": "float32"}, {"name": "conv2d_79/kernel", "shape": [1, 1, 512, 256], "dtype": "float32"}, {"name": "batch_normalization_78/gamma", "shape": [256], "dtype": "float32"}, {"name": "batch_normalization_78/beta", "shape": [256], "dtype": "float32"}, {"name": "batch_normalization_79/gamma", "shape": [256], "dtype": "float32"}, {"name": "batch_normalization_79/beta", "shape": [256], "dtype": "float32"}, {"name": "conv2d_80/kernel", "shape": [1, 1, 512, 256], "dtype": "float32"}, {"name": "batch_normalization_80/gamma", "shape": [256], "dtype": "float32"}, {"name": "batch_normalization_80/beta", "shape": [256], "dtype": "float32"}, {"name": "conv2d_81/kernel", "shape": [3, 3, 256, 512], "dtype": "float32"}, {"name": "batch_normalization_81/gamma", "shape": [512], "dtype": "float32"}, {"name": "batch_normalization_81/beta", "shape": [512], "dtype": "float32"}, {"name": "conv2d_82/kernel", "shape": [1, 1, 512, 256], "dtype": "float32"}, {"name": "batch_normalization_82/gamma", "shape": [256], "dtype": "float32"}, {"name": "batch_normalization_82/beta", "shape": [256], "dtype": "float32"}, {"name": "conv2d_83/kernel", "shape": [3, 3, 256, 512], "dtype": "float32"}, {"name": "batch_normalization_83/gamma", "shape": [512], "dtype": "float32"}, {"name": "batch_normalization_83/beta", "shape": [512], "dtype": "float32"}, {"name": "conv2d_84/kernel", "shape": [1, 1, 512, 256], "dtype": "float32"}, {"name": "batch_normalization_84/gamma", "shape": [256], "dtype": "float32"}, {"name": "batch_normalization_84/beta", "shape": [256], "dtype": "float32"}, {"name": "conv2d_85/kernel", "shape": [1, 1, 256, 128], "dtype": "float32"}, {"name": "conv2d_86/kernel", "shape": [1, 1, 256, 128], "dtype": "float32"}, {"name": "batch_normalization_85/gamma", "shape": [128], "dtype": "float32"}, {"name": "batch_normalization_85/beta", "shape": [128], "dtype": "float32"}, {"name": "batch_normalization_86/gamma", "shape": [128], "dtype": "float32"}, {"name": "batch_normalization_86/beta", "shape": [128], "dtype": "float32"}, {"name": "conv2d_87/kernel", "shape": [1, 1, 256, 128], "dtype": "float32"}, {"name": "batch_normalization_87/gamma", "shape": [128], "dtype": "float32"}, {"name": "batch_normalization_87/beta", "shape": [128], "dtype": "float32"}, {"name": "conv2d_88/kernel", "shape": [3, 3, 128, 256], "dtype": "float32"}, {"name": "batch_normalization_88/gamma", "shape": [256], "dtype": "float32"}, {"name": "batch_normalization_88/beta", "shape": [256], "dtype": "float32"}, {"name": "conv2d_89/kernel", "shape": [1, 1, 256, 128], "dtype": "float32"}, {"name": "batch_normalization_89/gamma", "shape": [128], "dtype": "float32"}, {"name": "batch_normalization_89/beta", "shape": [128], "dtype": "float32"}, {"name": "conv2d_90/kernel", "shape": [3, 3, 128, 256], "dtype": "float32"}, {"name": "batch_normalization_90/gamma", "shape": [256], "dtype": "float32"}, {"name": "batch_normalization_90/beta", "shape": [256], "dtype": "float32"}, {"name": "conv2d_91/kernel", "shape": [1, 1, 256, 128], "dtype": "float32"}, {"name": "batch_normalization_91/gamma", "shape": [128], "dtype": "float32"}, {"name": "batch_normalization_91/beta", "shape": [128], "dtype": "float32"}, {"name": "batch_normalization_72/moving_mean", "shape": [512], "dtype": "float32"}, {"name": "batch_normalization_72/moving_variance", "shape": [512], "dtype": "float32"}, {"name": "batch_normalization_73/moving_mean", "shape": [1024], "dtype": "float32"}, {"name": "batch_normalization_73/moving_variance", "shape": [1024], "dtype": "float32"}, {"name": "batch_normalization_74/moving_mean", "shape": [512], "dtype": "float32"}, {"name": "batch_normalization_74/moving_variance", "shape": [512], "dtype": "float32"}, {"name": "batch_normalization_75/moving_mean", "shape": [512], "dtype": "float32"}, {"name": "batch_normalization_75/moving_variance", "shape": [512], "dtype": "float32"}, {"name": "batch_normalization_76/moving_mean", "shape": [1024], "dtype": "float32"}, {"name": "batch_normalization_76/moving_variance", "shape": [1024], "dtype": "float32"}, {"name": "batch_normalization_77/moving_mean", "shape": [512], "dtype": "float32"}, {"name": "batch_normalization_77/moving_variance", "shape": [512], "dtype": "float32"}, {"name": "batch_normalization_78/moving_mean", "shape": [256], "dtype": "float32"}, {"name": "batch_normalization_78/moving_variance", "shape": [256], "dtype": "float32"}, {"name": "batch_normalization_79/moving_mean", "shape": [256], "dtype": "float32"}, {"name": "batch_normalization_79/moving_variance", "shape": [256], "dtype": "float32"}, {"name": "batch_normalization_80/moving_mean", "shape": [256], "dtype": "float32"}, {"name": "batch_normalization_80/moving_variance", "shape": [256], "dtype": "float32"}, {"name": "batch_normalization_81/moving_mean", "shape": [512], "dtype": "float32"}, {"name": "batch_normalization_81/moving_variance", "shape": [512], "dtype": "float32"}, {"name": "batch_normalization_82/moving_mean", "shape": [256], "dtype": "float32"}, {"name": "batch_normalization_82/moving_variance", "shape": [256], "dtype": "float32"}, {"name": "batch_normalization_83/moving_mean", "shape": [512], "dtype": "float32"}, {"name": "batch_normalization_83/moving_variance", "shape": [512], "dtype": "float32"}, {"name": "batch_normalization_84/moving_mean", "shape": [256], "dtype": "float32"}, {"name": "batch_normalization_84/moving_variance", "shape": [256], "dtype": "float32"}, {"name": "batch_normalization_85/moving_mean", "shape": [128], "dtype": "float32"}, {"name": "batch_normalization_85/moving_variance", "shape": [128], "dtype": "float32"}, {"name": "batch_normalization_86/moving_mean", "shape": [128], "dtype": "float32"}, {"name": "batch_normalization_86/moving_variance", "shape": [128], "dtype": "float32"}, {"name": "batch_normalization_87/moving_mean", "shape": [128], "dtype": "float32"}, {"name": "batch_normalization_87/moving_variance", "shape": [128], "dtype": "float32"}, {"name": "batch_normalization_88/moving_mean", "shape": [256], "dtype": "float32"}, {"name": "batch_normalization_88/moving_variance", "shape": [256], "dtype": "float32"}, {"name": "batch_normalization_89/moving_mean", "shape": [128], "dtype": "float32"}, {"name": "batch_normalization_89/moving_variance", "shape": [128], "dtype": "float32"}, {"name": "batch_normalization_90/moving_mean", "shape": [256], "dtype": "float32"}, {"name": "batch_normalization_90/moving_variance", "shape": [256], "dtype": "float32"}, {"name": "batch_normalization_91/moving_mean", "shape": [128], "dtype": "float32"}, {"name": "batch_normalization_91/moving_variance", "shape": [128], "dtype": "float32"}]}]}